scripts/model/denoise_ae.pth (torch, 134884 bytes, 7 tensors)

weight f4 [16, 1, 5, 5]
0.0009904496 -0.021120515 0.00025957063 0.024083626 0.009108098 0.012923409 -0.021494308 0.015486002
0.05152251 -0.002248713 0.021809664 -0.087914445 0.02377121 0.011415336 -0.022014327 -0.03869695
-0.07928775 0.03555163 0.013773681 -0.02192056 -0.014001157 0.008778651 0.05633515 0.021064281
0.008036376 0.009113006 0.023421178 0.03194711 0.024779659 0.01681173 0.008747461 0.032157004
0.05454021 0.070216745 0.021418484 -0.011748036 -0.022882136 0.030621966 0.09785087 0.039119735
-0.056836873 -0.08618566 -0.025688285 0.0638468 0.041824218 -0.03599834 -0.06931495 -0.039752673
0.043624815 0.027900314 -0.004095845 0.004248841 0.019935112 0.017666506 0.0074954266 -0.026078723
-0.018914558 0.014457062 0.0440733 0.00021011113 -0.051087793 -0.08803291 -0.07866644 -0.020848775
0.0030115705 0.019491341 -0.015281305 -0.07420242 -0.08227743 -0.042777628 0.029514283 0.045974385
0.008099476 -0.011728225 -0.020183222 -0.0014545785 -0.0016130174 -0.018216902 -0.0076326164 -0.0003602631
0.010858936 -0.0023826691 -0.039122585 -0.0356611 -0.032719754 0.023002828 0.013330282 -0.060657438
-0.075500764 -0.045521323 0.031718303 0.05809607 0.040957104 0.023114465 0.01611592 0.025393544
0.06066625 0.06912908 0.057226624 0.03561103 -0.0017493446 -0.019571325 -0.011460615 0.0035571964
-0.0003525486 -0.007594025 -0.0145919565 0.015979683 0.014460571 0.0029378561 -0.01483436 0.04604739
0.06004755 0.011315882 -0.0033508504 0.04633222 0.08537903 0.035027746 -0.049962267 -0.028912103
0.043724246 0.048990812 -0.021311548 -0.032768447 -0.01583948 -0.0017235617 0.034287103 0.034900997
0.010741674 -0.0042781644 0.018953467 0.035379563 0.0014939699 -0.05264061 -0.035271157 -0.00774857
-0.040813766 -0.1194196 -0.10560428 -0.022016611 -0.013853712 -0.038193036 -0.014992386 0.053616203
0.048350226 -0.01057292 -0.0019579343 0.030461382 0.032654095 0.0104776835 -0.005392347 0.006662259
0.00020290853 -0.02085354 -0.0062774667 0.023389285 0.016514385 -0.07885179 -0.12745255 -0.06519548
0.015865635 -0.04214369 -0.19184357 -0.2320167 -0.1440971 0.009400234 -0.04797177 -0.18841298
-0.24480197 -0.13800561 0.011639301 -0.03108734 -0.100008026 -0.13245511 -0.06972036 0.017139575
0.047227316 0.05016927 0.02315857 0.0013466799 0.0471517 0.10262981 0.107659176 0.0658098
0.004299981 0.068014584 0.12205502 0.1281 0.07929996 0.004315943 0.042957995 0.08974681
0.09243499 0.044420056 0.0023018222 0.007129389 0.02388031 0.021063907 0.003814374 -0.0054582227
0.011992555 0.012333434 0.009657613 -0.043461278 -0.0328271 -0.003854604 0.02958323 0.036682505
-0.0729037 -0.04159221 -0.026165424 0.04473787 0.110195726 -0.030754814 -0.05527612 -0.042863727
0.0057195225 0.094738 0.026542699 -0.027232813 -0.030795889 -0.033703297 0.028539259 0.017047217
-0.0014380763 0.014426478 0.033744644 0.07296481 0.08902544 0.056410845 0.041461293 0.04497699
0.04814522 0.06765352 0.056582473 0.0073656626 -0.023231817 -0.08144888 -0.056543324 -0.0016107935
-0.019033302 -0.05027732 -0.0556339 -0.03390361 -0.005360812 -0.015503745 -0.013902184 -0.009947934
-0.0028698149 0.0018131345 0.0014187407 0.011436632 -0.009065786 -0.02417374 0.014611989 0.00901465
00000000: f9d1 813a ee04 adbc fb16 8839 064b c53c
00000010: 223a 153c b5bc 533c d514 b0bc 00b9 7d3c
00000020: 4409 533d 255f 13bb 2eaa b23c 7d0c b4bd
00000030: d7bb c23c 6407 3b3c 6457 b4bc b180 1ebd
00000040: 9e61 a2bd 969e 113d 01ab 613c bf92 b3bc
00000050: 1c65 65bc 55d4 0f3c b0bf 663d 008f ac3c
00000060: 01ab 033c b84e 153c c5dd bf3c f9da 023d
00000070: b6fe ca3c c1b8 893c 8351 0f3c 10b7 033d
00000080: 8e65 5f3d cccd 8f3d d175 af3c d67a 40bc
00000090: 5173 bbbc ebda fa3c 0966 c83d 043c 203d
000000a0: c8cd 68bd 1b82 b0bd 3d70 d2bc 1cc2 823d
000000b0: df4f 2b3d ff72 13bd fff4 8dbd b3d3 22bd
000000c0: efaf 323d 338f e43c 7036 86bb dd39 8b3b
000000d0: f64e a33c 59b9 903c 329c f53b 0ca3 d5bc
000000e0: b4f2 9abc 50dd 6c3c 3486 343d 4751 5c39
000000f0: 6f41 51bd 994a b4bd df1b a1bd 0dcb aabc
00000100: c55d 453b 4eac 9f3c 705e 7abc 70f7 97bd
00000110: 1281 a8bd 9837 2fbd f0c7 f13c a34f 3c3d
00000120: aab3 043c be27 40bc 4957 a5bc 8ea7 beba
00000130: e26b d3ba 9d3b 95bc 071b fabb b2e1 bcb9
00000140: aee9 313c 8e26 1cbb 013f 20bd 6011 12bd
00000150: 2605 06bd 6d70 bc3c 4167 5a3c ef73 78bd
00000160: 25a0 9abd 9174 3abd 0deb 013d 25f6 6d3d
00000170: a3c2 273d 8c5a bd3c 8905 843c 1f06 d03c
00000180: 2c7d 783d 8c93 8d3d 7766 6a3d dfdc 113d
00000190: 444a e5ba 0b54 a0bc 4ec5 3bbc da1f 693b
000001a0: 46d6 b8b9 4dd7 f8bb 1a13 6fbc d3e7 823c
000001b0: 08ec 6c3c 0c89 403b d10b 73bc 309c 3c3d
000001c0: 6bf4 753d 4066 393c f199 5bbb dbc6 3d3d
000001d0: 33db ae3d 4179 0f3d 3ca5 4cbd 13d9 ecbc
000001e0: 3218 333d 97aa 483d 8e95 aebc 3538 06bd
000001f0: ccc1 81bc 22e9 e1ba a270 0c3d 59f4 0e3d
00000200: d9fd 2f3c d82f 8cbb 4d44 9b3c 29ea 103d
00000210: 50d1 c33a ae9d 57bd 7d78 10bd b7e7 fdbb
00000220: 562c 27bd 4392 f4bd 0f47 d8bd 2e5c b4bc
00000230: aefa 62bc 4d70 1cbd a0a2 75bc aa9c 5b3d
00000240: e30a 463d 0a3a 2dbc b050 00bb 268a f93c
00000250: 4dc0 053d 97aa 2b3c 49b2 b0bb 144f da3b
00000260: d8c3 5439 0bd5 aabc 35b3 cdbb e39a bf3c
00000270: 2d49 873c 0c7d a1bd ec82 02be 3585 85bd
00000280: a6f8 813c dd9e 2cbd a472 44be c995 6dbe
00000290: 318e 13be 7003 1a3c 0c7e 44bd 55ef 40be
000002a0: 5ead 7abe 5851 0dbe c4b2 3e3c e1aa febc
000002b0: 02d1 ccbd 50a2 07be 8cc9 8ebd 4b68 8c3c
000002c0: 6e71 413d 4b7e 4d3d 0bb7 bd3c 1483 b03a
000002d0: 2422 413d 942f d23d 6a7c dc3d 4ac7 863d
000002e0: dbe6 8c3b 3b4b 8b3d fbf7 f93d a52c 033e
000002f0: 0468 a23d c16c 8d3b b9f4 2f3d 2dcd b73d
00000300: 8e4e bd3d cef1 353d 2bda 163b a69d e93b
00000310: a4a0 c33c 378e ac3c 94fa 793b e4da b2bb
00000320: 6c7c 443c 2c12 4a3c f73a 1e3c 7404 32bd
00000330: b675 06bd 869d 7cbb 8858 f23c 6540 163d
00000340: 894e 95bd 985c 2abd df58 d6bc 0f3f 373d
00000350: 4cae e13d 85f1 fbbc 3669 62bd e091 2fbd
00000360: d56a bb3b ff05 c23d 1370 d93c 5917 dfbc
00000370: a947 fcbc 780c 0abd 2acb e93c 9ba6 8b3c
00000380: d57d bcba 095d 6c3c d337 0a3d 936e 953d
00000390: f852 b63d 0f0f 673d 51d3 293d cb39 383d
000003a0: ec33 453d ee8d 8a3d 06c3 673d a85b f13b
000003b0: a750 bebc acce a6bd f999 67bd 4321 d3ba
000003c0: baeb 9bbc 97ef 4dbd 5fe0 63bd 83de 0abd
000003d0: c0a9 afbb 6b03 7ebc fcc5 63bc a9fc 22bc
000003e0: 8113 3cbb b3a6 ed3a 0af5 b93a b660 3b3c
000003f0: aa88 14bc 0208 c6bc 2067 6f3c 2fb2 133c

bias f4 [16]
-0.047297444 -0.1800403 0.06701273 -0.109974444 -0.111795396 -0.0063748322 0.17384757 -0.46582407
-0.063898325 -0.14152281 -0.016643109 -0.2526954 0.036620088 0.008470673 -0.08401466 -0.11520113
00000000: f7ba 41bd 7c5c 38be f83d 893d 483a e1bd
00000010: fcf4 e4bd f8e3 d0bb 1905 323e 7e80 eebe
00000020: 20dd 82bd 5beb 10be 2157 88bc 4b61 81be
00000030: f2fe 153d 94c8 0a3c e10f acbd 92ee ebbd

weight f4 [32, 16, 5, 5]
-0.04218897 0.042347446 0.058333255 0.19093432 0.09265297 -0.0763634 -0.06350683 0.15352388
0.16929133 0.6149308 -0.04046098 0.07315597 -0.0703746 -0.0634256 0.35295016 0.011285009
0.005456866 -0.13696094 -0.061279554 -0.10417838 -0.1437227 -0.18601346 -0.13463159 -0.03360882
-0.017365754 0.02989081 -0.028705852 -0.49312901 -0.56903416 1.3058262 0.070675895 0.22160386
-0.41670728 0.16977672 0.44780985 -0.084954835 0.11924607 -0.014066142 -0.14704448 -0.029719653
0.05688407 -0.106380284 0.08059951 0.052510202 -0.19339155 0.027456328 -0.024361689 -0.043706514
-0.009956671 0.07191888 -0.06762516 -0.053058546 -0.09081733 -0.06717885 0.23238795 -0.23299278
0.06713736 -0.13074955 0.49551955 0.07907746 -0.029761666 0.039696578 0.14114413 -0.22120751
-0.27746004 0.16358928 -0.08921007 0.032948747 0.16922541 -0.12285071 0.014074624 -0.008146953
-0.14601038 -0.0662413 -0.02221574 0.09129733 0.27294177 0.054701366 0.081880055 -0.11806783
0.124332786 0.16294116 -0.21457314 -1.4244442 -0.7590153 0.14233154 0.0094896 0.05770399
-0.1626386 -0.1436178 0.007421946 0.047902826 0.16038659 0.25402835 0.2628196 0.022004155
0.06788543 0.06608254 0.030075043 0.17633834 -0.01671122 0.057729024 -0.10253138 -0.39670724
0.124389865 -0.03397666 0.091452874 0.38554066 -0.00096732593 0.6982756 0.04508458 -0.005982974
-0.032194793 0.199704 -0.008274794 0.05420092 -0.02915309 0.013733376 0.13660303 0.0021979955
-0.028343366 -0.111451484 -0.13125624 -0.09390791 0.05189212 -0.101562865 0.12699135 0.12907037
0.7601241 -0.02152857 0.046530932 0.1965306 0.32997587 -0.23951638 -0.23720734 0.0450875
0.0051933606 0.090820126 0.121686995 -0.03388395 -0.055699598 -0.022615034 -0.17676611 -0.03809117
0.15589769 -0.062063172 -0.07897247 -0.0057275053 0.10434552 -0.008297983 -0.008965573 -0.0026620235
-0.34529778 -0.6676127 0.2653333 -0.15215828 0.20547219 -0.33060697 -0.3292749 0.04283669
-0.05950013 0.15849426 -0.07319364 -0.21673708 -0.1099751 -0.02075619 0.10784493 0.08190362
0.10751843 0.015848052 0.018605426 0.03358784 -0.022780705 -0.07634299 -0.03631628 -0.060041316
-0.0041732443 -0.35748404 -0.001306934 0.23287946 -0.09534474 -0.15662283 -0.21818791 0.30377057
-0.30309588 -0.14683306 -0.10691596 -0.048907056 -0.48527825 -0.024675796 -0.031197254 -0.008163016
-0.0513788 -0.020181507 -0.03401136 -0.012015272 0.06192475 -0.049402416 -0.11196081 -0.097897016
0.080876544 0.08353033 -0.36900908 -0.28249833 1.5651637 -0.02786255 0.10578434 0.17894624
-1.0076699 0.53545 -0.09326284 0.21054311 -0.09432405 0.1393017 0.04831304 0.11539594
0.1769641 0.05247436 -0.08659007 0.047625527 0.04434106 0.06391175 0.05384361 -0.06460719
0.09515584 -0.016647415 -0.06799135 0.10364351 0.4025958 0.017589388 0.18949057 0.053154036
0.35475042 0.5793012 -0.035026934 0.2385202 0.050558265 -0.10476306 0.2759848 -0.08055992
0.088739984 0.25421315 -0.0527182 -0.2292722 -0.37887326 0.0212027 0.037013832 0.07523323
-0.06562976 0.17378096 0.1387179 0.22302009 -0.6374177 -0.34611228 -0.122667365 0.14437811
00000000: 57ce 2cbd 8474 2d3d daee 6e3d 4984 433e
00000010: d7c0 bd3d 6a64 9cbd de0f 82bd 5d35 1d3e
00000020: b55a 2d3e 1b6c 1d3f 6aba 25bd ccd2 953d
00000030: 8f20 90bd 48e5 81bd e2b5 b43e c2e4 383c
00000040: 83cf b23b 7d3f 0cbe 4500 7bbd 795b d5bd
00000050: 0b2c 13be 507a 3ebe dddc 09be 67a9 09bd
00000060: a042 8ebc 92dd f43c 8928 ebbc 687b fcbe
00000070: 39ac 11bf 5025 a73f 86be 903d 1fec 623e
00000080: a85a d5be f3d9 2d3e 5547 e53e cdfc adbd
00000090: 4937 f43d ad75 66bc d492 16be a176 f3bc
000000a0: 45ff 683d e8dd d9bd 5b11 a53d f014 573d
000000b0: 6f08 46be 18ec e03c 2a92 c7bc 9a05 33bd
000000c0: 4e21 23bc 354a 933d 0f7f 8abd eb53 59bd
000000d0: 70fe b9bd 1195 89bd 1bf7 6d3e a995 6ebe
000000e0: 507f 893d 36e3 05be bdb4 fd3e 5df3 a13d
000000f0: bdce f3bc e198 223d 1688 103e 3984 62be
00000100: 3e0f 8ebe f383 273e c5b3 b6bd 44f5 063d
00000110: 6d49 2d3e 2799 fbbd 4099 663c cc7a 05bc
00000120: bf83 15be 85a9 87bd c9fd b5bc 18fa ba3d
00000130: 06bf 8b3e 8a0e 603d bbb0 a73d 8ccd f1bd
00000140: 30a2 fe3d 0cda 263e 10b9 5bbe 3054 b6bf
00000150: d44e 42bf 5cbf 113e 447a 1b3c 055b 6c3d
00000160: bc8a 26be 8b10 13be cc33 f33b c135 443d
00000170: 623c 243e 0110 823e 4a90 863e 0f42 b43c
00000180: 8407 8b3d 4856 873d f05f f63c 0a92 343e
00000190: f8e5 88bc 4575 6c3d f9fb d1bd 361d cbbe
000001a0: 1dc0 fe3d 1c2b 0bbd a54b bb3d 9665 c53e
000001b0: 2594 7dba 31c2 323f 9caa 383d d30c c4bb
000001c0: b0de 03bd 357f 4c3e 0093 07bc c901 5e3d
000001d0: 76d2 eebc f401 613c aae1 0b3e 3f0c 103b
000001e0: 5930 e8bc ad40 e4bd 0968 06be ca52 c0bd
000001f0: d58c 543d 3100 d0bd 050a 023e 062b 043e
00000200: 7e97 423f af5c b0bc 3897 3e3d 513f 493e
00000210: 99f2 a83e c843 75be 7be6 72be acad 383d
00000220: 112d aa3b e7ff b93d 0837 f93d e6c9 0abd
00000230: 4325 64bd 2a43 b9bc 2d02 35be 7d05 1cbd
00000240: a5a3 1f3e f435 7ebd 51bc a1bd ccad bbbb
00000250: 1bb3 d53d 43f4 07bc 57e4 12bc 5875 2ebb
00000260: dfca b0be aae8 2abf c4d9 873e 61cf 1bbe
00000270: 4d67 523e 5145 a9be b896 a8be 8675 2f3d
00000280: 69b6 73bd 524c 223e 8ce6 95bd 53f0 5dbe
00000290: a03a e1bd e308 aabc cddd dc3d 16bd a73d
000002a0: 9f32 dc3d c6d3 813c 686a 983c 6793 093d
000002b0: 9a9e babc b759 9cbd 61c0 14bd e2ed 75bd
000002c0: b6bf 88bb 2608 b7be 6e4d abba f477 6e3e
000002d0: 1a44 c3bd bc61 20be a76c 5fbe d187 9b3e
000002e0: 622f 9bbe 685b 16be c1f6 dabd c452 48bd
000002f0: 6476 f8be e524 cabc 6291 ffbc 2cbe 05bc
00000300: 9472 52bd b053 a5bc 7f4f 0bbd b4db 44bc
00000310: cfa4 7d3d 305a 4abd b64b e5bd 3b7e c8bd
00000320: 9aa2 a53d f311 ab3d c2ee bcbe 9fa3 90be
00000330: 4957 c83f 0140 e4bc 76a5 d83d af3d 373e
00000340: 54fb 80bf 4013 093f 9600 bfbd 9d98 573e
00000350: f82c c1bd 1ba5 0e3e e5e3 453d b554 ec3d
00000360: 1436 353e 5bef 563d 2256 b1bd fc12 433d
00000370: f99e 353d 2ae4 823d 1e8b 5c3d c650 84bd
00000380: 11e1 c23d 2960 88bc 0d3f 8bbd 0c43 d43d
00000390: 0921 ce3e 9f17 903c d109 423e 0cb8 593d
000003a0: d9a1 b53e 154d 143f 6778 0fbd a43e 743e
000003b0: 2f16 4f3d 048e d6bd e14d 8d3e 99fc a4bd
000003c0: 4fbd b53d 3a28 823e 0aef 57bd 55c6 6abe
000003d0: adfb c1be 49b1 ad3c d19b 173d e113 9a3d
000003e0: e568 86bd a3f3 313e 110c 0e3e 615f 643e
000003f0: ce2d 23bf a135 b1be 0739 fbbd dbd7 133e

bias f4 [32]
-0.2553272 -0.036066644 -0.17004421 -0.47163728 -0.11127368 0.33806282 -0.22119649 0.6523564
0.014145975 -0.27066082 -0.26953477 -0.1297996 0.27160883 -0.7821461 -0.66396743 -0.14661536
-0.31372398 -0.14283091 -0.6960332 -0.18588522 -0.096238315 -0.47612128 0.14848316 -0.16456118
0.24360153 -0.59344345 -0.4172596 -0.2850958 -1.0166694 0.07114562 -0.509402 -0.6329042
00000000: 3fba 82be 9eba 13bd 1220 2ebe 717a f1be
00000010: 75e3 e3bd 9216 ad3e 5581 62be d400 273f
00000020: 85c4 673c 0e94 8abe 7600 8abe 30ea 04be
00000030: 5010 8b3e ba3a 48bf c5f9 29bf 5622 16be
00000040: 6ea0 a0be 4442 12be 3b2f 32bf b258 3ebe
00000050: 9818 c5bd 2bc6 f3be f80b 183e ba82 28be
00000060: ae72 793e e9eb 17bf 0da3 d5be 14f8 91be
00000070: 3922 82bf cbb4 913d 2b68 02bf 0206 22bf

weight f4 [32, 16, 6, 6]
0.10469427 -0.060556877 0.26126772 -0.10683649 -0.07189272 0.19828875 0.073252484 0.07315807
0.19740045 -0.7317943 0.16206902 -0.29452562 0.16955687 -0.22590108 0.2637666 0.06635998
0.083396725 -0.01645349 0.04026837 0.012741376 0.07423548 0.11037846 0.14213467 -0.07242332
-0.04046111 -0.0029550276 0.057270985 0.14773937 0.029617995 0.03302165 -0.0025859948 0.08381953
0.06462041 0.11369288 -0.029854847 0.101910815 -0.019530108 -0.03840068 0.035491344 0.3283285
-0.45813328 0.14763193 0.09207391 0.07075091 0.108617775 0.2104824 -0.05083924 0.04067687
-0.010810684 -0.005239908 0.19942503 -0.16365029 -0.046742678 0.2387339 -0.13511977 -0.08505914
-0.41786903 0.0475537 0.06563531 0.012370095 0.0048023947 -0.02511831 -0.044488266 0.111572705
-0.008951329 -0.05937239 -0.01918977 0.029176392 0.043841142 0.03210893 -0.09609388 -0.08215978
-0.14473598 0.13534527 0.010335346 0.7186267 0.0638469 -0.5911898 -0.04978393 0.046658788
0.04190931 0.012200358 -0.6351336 0.7835353 0.12421172 0.119308695 0.061481167 -0.5483421
-0.4072478 0.065101564 0.0175949 -0.069049716 0.050901867 0.015174997 0.18842667 -0.2138952
-0.000577288 -0.028638666 0.002354977 0.008185199 -0.011396478 0.194437 -0.034173604 -0.07923171
0.08722439 0.038674284 0.044974923 -0.009042247 0.0065735355 0.011334099 0.108307436 0.14319105
-0.23627086 0.029935133 -0.20129189 -0.058406997 0.2986361 -0.17312278 0.09000579 0.0587936
-0.022377769 0.04872685 -0.012102326 -0.03476888 -0.26019612 0.1391399 0.07601943 0.04470743
-0.68742186 0.09484347 0.23978628 -0.04887598 -0.021392034 -0.0795127 0.007652324 -0.024163311
0.005236123 0.001505255 0.16594203 -0.025183257 0.109229855 0.029327216 0.006844474 0.020044573
-0.039181657 0.01881234 0.2350336 0.0764126 0.4079231 -0.568221 0.06875804 0.081269376
0.18429409 -0.3888275 -0.4647985 0.5427833 -0.05547756 -0.17182371 -0.17047223 0.46370134
-0.1450862 -0.2262213 0.009500012 0.09211095 -0.018903924 -0.3866057 -0.51994437 -0.0555371
-0.05943768 -0.042667545 -0.1500092 -0.05892605 0.08343147 0.2679676 0.013069707 -0.017579604
0.041656826 -0.12338578 -0.15439504 -0.26042962 0.0017755401 -0.098285794 0.1858727 -0.094661765
0.19399089 0.0025291014 0.06585678 -0.09972906 0.21342911 0.074674405 0.4495557 -0.039926335
0.066816345 0.049898352 0.14609158 0.2094736 0.18958923 -0.070813596 -0.012950889 -0.012670488
-0.03399279 0.026008565 0.21865064 0.18047053 -0.040804368 -0.08947608 -0.074443065 0.07166728
0.11077513 -0.088950776 -0.04076245 -0.032261353 -0.0079999585 0.006274796 -0.010637923 -0.014404363
0.07170787 0.25394472 0.15477178 0.11722751 0.5658941 -0.59360015 -0.122700594 0.1547714
-0.20985305 -0.338054 -0.21886286 0.0805632 -0.068091586 -0.03065955 0.0014004669 -0.13065675
-0.20014678 0.37341854 0.14754206 0.038166415 -0.017296093 0.24002218 0.58354354 -0.24886237
0.0623562 0.037283525 -0.074326366 0.19447973 -0.09123528 0.009020428 0.0019838924 0.020968303
0.03866124 0.07501557 -0.02461798 -0.023502478 0.008206622 0.100533575 0.027366912 -0.33550912
00000000: f369 d63d 7d0a 78bd e2c4 853e 17cd dabd
00000010: 7e3c 93bd 350c 4b3e 6605 963d e6d3 953d
00000020: 5823 4a3e df56 3bbf 6cf5 253e 10cc 96be
00000030: 51a0 2d3e 9d52 67be 6a0c 873e bee7 873d
00000040: e7cb aa3d 78c9 86bc 72f0 243d 34c1 503c
00000050: c508 983d 1a0e e23d c08b 113e ad52 94bd
00000060: 8dba 25bd 23a9 41bb fb94 6a3d fd48 173e
00000070: 70a1 f23c b641 073d cb79 29bb 93a9 ab3d
00000080: b557 843d d0d7 e83d 2792 f4bc 9eb6 d03d
00000090: 9bfd 9fbc 084a 1dbd 5f5f 113d ac1a a83e
000000a0: 7290 eabe d32c 173e 3f91 bc3d dae5 903d
000000b0: ff72 de3d b388 573e cf3c 50bd ca9c 263d
000000c0: 4c1f 31bc 89b3 abbb 1336 4c3e f193 27be
000000d0: 4075 3fbd a976 743e d65c 0abe 7d33 aebd
000000e0: eef2 d5be abc7 423d ce6b 863d f0ab 4a3c
000000f0: 685d 9d3b eac4 cdbc 5439 36bd 3b80 e43d
00000100: 98a8 12bc 7730 73bd dd33 9dbc 5403 ef3c
00000110: c592 333d a784 033d decc c4bd 6343 a8bd
00000120: ab35 14be f397 0a3e 9555 293c ebf7 373f
00000130: 2ac2 823d 3758 17bf 3cea 4bbd 491d 3f3d
00000140: 19a9 2b3d 03e4 473c 1e98 22bf c595 483f
00000150: b762 fe3d 1e58 f43d add3 7b3d 2660 0cbf
00000160: c982 d0be f853 853d 2e23 903c f069 8dbd
00000170: 7a7e 503d 8da0 783c ecf2 403e 5807 5bbe
00000180: 2455 17ba a39b eabc f555 1a3b 371b 063c
00000190: 4bb8 3abc 7e1a 473e 9ff9 0bbd 3c44 a2bd
000001a0: b3a2 b23d ed68 1e3d a037 383d ef25 14bc
000001b0: d066 d73b a8b2 393c 4ad0 dd3d ada0 123e
000001c0: fdf0 71be 863a f53c 761f 4ebe 2d3c 6fbd
000001d0: d5e6 983e 1947 31be f554 b83d 8fd1 703d
000001e0: 9551 b7bc ce95 473d d648 46bc d069 0ebd
000001f0: 6d38 85be b17a 0e3e 13b0 9b3d 231f 373d
00000200: e1fa 2fbf 4b3d c23d 898a 753e 2e32 48bd
00000210: 593e afbc 8ed7 a2bd 59c0 fa3b 23f2 c5bc
00000220: c993 ab3b fa4b c53a b5ec 293e 1e4d cebc
00000230: e7b3 df3d a13f f03c 9c47 e03b 8434 a43c
00000240: f27c 20bd 561c 9a3c a6ac 703e 367e 9c3d
00000250: 4cdb d03e ee76 11bf 04d1 8c3d 8f70 a63d
00000260: 97b7 3c3e 6614 c7be 12fa edbe d9f3 0a3f
00000270: 703c 63bd 8ef2 2fbe 4690 2ebe 436a ed3e
00000280: 7a91 14be 8ea6 67be f0a5 1b3c aaa4 bc3d
00000290: 67dc 9abc 2ff1 c5be 131b 05bf df7a 63bd
000002a0: ed74 73bd 2ac4 2ebd 039c 19be 715c 71bd
000002b0: 1ede aa3d 0d33 893e 5322 563c 1a03 90bc
000002c0: 59a0 2a3d afb1 fcbd bc19 1ebe 0857 85be
000002d0: 3db9 e83a 104a c9bd 6a55 3e3e 07de c1bd
000002e0: 8ca5 463e 48bf 253b ebdf 863d c03e ccbd
000002f0: 298d 5a3e e5ee 983d 2a2c e63e cc89 23bd
00000300: 02d7 883d 3762 4c3d 0899 153e 3f80 563e
00000310: ae23 423e b806 91bd f72f 54bc e197 4fbc
00000320: 063c 0bbd ea0f d53c f4e5 5f3e 44cd 383e
00000330: 7b22 27bd 3c3f b7bd 9b75 98bd 4bc6 923d
00000340: 12de e23d d32b b6bd 87f6 26bd 7b24 04bd
00000350: 4212 03bc ce9c cd3b af4a 2ebc 4700 6cbc
00000360: 93db 923d 0b05 823e 7e7c 1e3e fa14 f03d
00000370: 70de 103f 2ef6 17bf 734a fbbd 657c 1e3e
00000380: b8e3 56be 6a15 adbe 961d 60be 52fe a43d
00000390: 9a73 8bbd bd29 fbbc df8f b73a e2ca 05be
000003a0: 47f3 4cbe b730 bf3e 4415 173e 6354 1c3d
000003b0: 89b0 8dbc 60c8 753e 1c63 153f c7d5 7ebe
000003c0: 3769 7f3d 9cb6 183d 6c38 98bd b225 473e
000003d0: 90d9 babd 6bca 133c 3104 023b b8c5 ab3c
000003e0: 405b 1e3d c3a1 993d a5ab c9bc 4588 c0bc
000003f0: 1175 063c 8ce4 cd3d 9330 e03c dac7 abbe

bias f4 [16]
-0.05163095 0.7374158 0.26870403 -0.4010938 -0.8716706 -0.3305591 0.057260726 0.023670219
0.34030506 -0.4471018 -0.6090419 0.12197791 0.07007033 0.3118392 0.14290531 0.6590836
00000000: fa7a 53bd 48c7 3c3f 9393 893e 2b5c cdbe
00000010: ce25 5fbf 0b3f a9be 398a 6a3d 0ce8 c13c
00000020: 773c ae3e 87ea e4be 2cea 1bbf 8ecf f93d
00000030: 0881 8f3d 63a9 9f3e c555 123e b4b9 283f

weight f4 [16, 1, 6, 6]
-0.06649263 0.0826323 0.21797693 -0.03764786 -0.25319162 -0.157535 -0.003147044 0.27155802
0.22325812 -0.401039 -0.62395054 -0.30932257 0.0025087574 0.23785649 -0.04436508 -0.60082304
-0.8084513 -0.4495376 -0.0090470975 0.19481829 -0.007455647 -0.46066326 -0.75663674 -0.43024343
0.023448495 0.21516703 0.14129905 -0.31478915 -0.516748 -0.30148023 0.033365168 0.12760994
0.0897211 -0.12093396 -0.30882117 -0.17985977 0.0121882595 -0.055957753 -0.05648217 -0.091463536
-0.24178661 -0.19739887 0.048244547 -0.038965076 -0.056044776 -0.05797288 -0.27138156 -0.28870198
0.10028068 0.20490682 0.48171175 0.6126708 0.35502377 0.082712 0.0336552 0.08696932
0.55974555 0.8165292 0.6266691 0.2226649 -0.14802018 -0.46010178 -0.36986777 0.06906597
0.1969784 0.014430937 -0.14401436 -0.53307855 -0.6578956 -0.3130666 -0.15147541 -0.11055834
0.33511025 0.42738515 0.2912747 0.16115525 -0.014963119 -0.017901639 0.23480824 0.052805275
-0.23169029 -0.23332886 -0.24170053 -0.076464556 -0.35044283 -0.6961768 -0.61916196 -0.23669222
-0.14694963 -0.063177764 -0.10402166 0.018704718 0.28739846 0.45374686 0.13572691 -0.032001313
0.19018164 0.27537674 0.3604759 0.1972569 -0.24097551 -0.24683186 0.103548765 0.043902926
0.027532661 -0.13958876 -0.28791827 -0.07484258 -0.022384098 0.0687193 0.12525131 0.068599135
0.056530908 0.09676298 0.08116534 0.21843094 0.19643186 0.085484676 0.05663269 0.14590436
0.18118696 0.10338017 -0.19782275 -0.4329931 -0.32245252 -0.05168814 0.022962218 -0.4426176
-0.76565474 -0.8286891 -0.5305569 -0.05926922 -0.17679635 -0.5827744 -0.6135269 -0.4360801
-0.05338933 0.2240633 -0.03755389 -0.17842945 -0.055139508 0.1493257 0.2632625 0.25424656
0.48296914 0.6570963 0.42208388 0.27465323 0.39963645 0.28844485 0.3230346 0.33022645
0.06173436 0.032760005 0.1790554 0.09380842 -0.0032849282 0.13304736 0.035555482 -0.33409503
-0.35086215 -0.16961028 0.12221859 0.28329164 0.029706763 -0.51793724 -0.46642306 -0.18385017
0.38361418 0.40095243 -0.13852456 -0.39037144 -0.020678636 0.24385603 0.29095927 0.092515476
-0.23299642 -0.14891158 0.3117417 0.36221433 0.060056854 0.016364478 -0.058707476 -0.021928713
0.010882734 -0.019698093 0.0304428 -0.23318851 -0.18429825 0.1172854 0.16607286 -0.003853093
-0.32223278 -0.59645444 0.08570202 0.45479766 0.13406567 -0.13541996 -0.38830662 -0.14319842
0.785526 0.638133 -0.3194933 -0.35189813 -0.12816449 0.3554427 0.7441254 -0.029739518
-0.6658435 -0.28166676 -0.03372909 0.19115113 0.21088205 -0.3468377 -0.3540374 0.02729191
-0.10785937 -0.22515744 -0.039785083 0.07052942 -0.007942203 -0.07676172 -0.20751815 -0.25917196
0.105803676 0.20904924 -0.13992737 -0.20506005 -0.15763575 -0.10413243 0.20025428 0.028934194
-0.35668907 -0.2971269 -0.09844908 -0.055967227 -0.096486576 -0.47674906 -0.7457098 -0.4739277
-0.05292632 -0.11101381 -0.3744249 -0.7077633 -0.75998044 -0.42833427 -0.12065272 -0.27043563
-0.32683146 -0.37039992 -0.30021217 -0.11638234 0.09089487 -0.01827477 -0.08361206 -0.072067805
00000000: 4a2d 88bd 203b a93d 5835 5f3e a434 1abd
00000010: 55a2 81be db50 21be a33e 4ebb a709 8b3e
00000020: c79d 643e fc54 cdbe 39bb 1fbf 875f 9ebe
00000030: f769 243b a790 733e 28b8 35bd 8acf 19bf
00000040: aaf6 4ebf cb29 e6be 473a 14bc 727e 473e
00000050: 804e f4bb 0edc ebbe f2b2 41bf de48 dcbe
00000060: 0f17 c03c bf54 5c3e b3b0 103e 0b2c a1be
00000070: 9949 04bf 9e5b 9abe eaa9 083d 2eac 023e
00000080: b2bf b73d 39ac f7bd cf1d 9ebe 292d 38be
00000090: 44b1 473c f533 65bd d959 67bd 3c51 bbbd
000000a0: e996 77be ee22 4abe 139c 453d d899 1fbd
000000b0: 358f 65bd f874 6dbd 86f2 8abe bfd0 93be
000000c0: f55f cd3d 18d3 513e eca2 f63e fed7 1c3f
000000d0: adc5 b53e e964 a93d 09da 093d f91c b23d
000000e0: 7c4b 0f3f 0f08 513f 636d 203f 4402 643e
000000f0: 9a92 17be 7692 ebbe 4f5f bdbe 7672 8d3d
00000100: b5b4 493e bd6f 6c3c 8078 13be d677 08bf
00000110: d96b 28bf 444a a0be 5f1c 1bbe 696c e2bd
00000120: 9293 ab3e 3ad2 da3e f521 953e e205 253e
00000130: df27 75bc 75a6 92bc 9271 703e 584a 583d
00000140: 3840 6dbe c3ed 6ebe 5880 77be 7399 9cbd
00000150: 3e6d b3be a538 32bf 6681 1ebf 725f 72be
00000160: f779 16be 5863 81bd 4f09 d5bd a33a 993c
00000170: e425 933e 8251 e83e fffb 0a3e cf13 03bd
00000180: fabe 423e 2efe 8c3e 4c90 b83e b6fd 493e
00000190: 49c2 76be 7ec1 7cbe 6011 d43d 8ed3 333d
000001a0: 2d8c e13c 5bf0 0ebe 066a 93be 1147 99bd
000001b0: db5e b7bc b4bc 8c3d e141 003e b47d 8c3d
000001c0: f48c 673d ab2b c63d 043a a63d 5cac 5f3e
000001d0: 6f25 493e 9712 af3d aef7 673d f467 153e
000001e0: 1389 393e fcb8 d33d 0c92 4abe 46b1 ddbe
000001f0: 7f18 a5be f1b6 53bd 431b bc3c c69e e2be
00000200: f301 44bf f824 54bf 94d2 07bf 48c4 72bd
00000210: 1a0a 35be b430 15bf 1910 1dbf e445 dfbe
00000220: c5ae 5abd da70 653e 1cd2 19bd 36b6 36be
00000230: f7d9 61bd d6e8 183e 58ca 863e 9b2c 823e
00000240: bb47 f73e 7737 283f 611b d83e 599f 8c3e
00000250: 269d cc3e 0baf 933e cb64 a53e 7113 a93e
00000260: 2bdd 7c3d 5b2f 063d 4c5a 373e a11e c03d
00000270: f347 57bb 913d 083e a0a2 113d 810e abbe
00000280: 34a4 b3be 51ae 2dbe bd4d fa3d 9a0b 913e
00000290: 995b f33c 8997 04bf 01cf eebe 3843 3cbe
000002a0: 1469 c43e a349 cd3e 62d9 0dbe c4de c7be
000002b0: 3e66 a9bc 65b5 793e 9df8 943e c178 bd3d
000002c0: 9d96 6ebe 477c 18be 9c9c 9f3e 2874 b93e
000002d0: 2dfe 753d cc0e 863c 4077 70bd d8a3 b3bc
000002e0: 7f4d 323c e55d a1bc 2e63 f93c f8c8 6ebe
000002f0: aeb8 3cbe 5433 f03d 010f 2a3e 2c84 7cbb
00000300: b2fb a4be 3db1 18bf 8a84 af3d 3ddb e83e
00000310: 8348 093e 88ab 0abe 20d0 c6be 9ba2 12be
00000320: 3b18 493f af5c 233f a094 a3be fe2b b4be
00000330: 8d3d 03be 96fc b53e 017f 3e3f 4aa0 f3bc
00000340: b874 2abf a036 90be 8427 0abd 1fbd 433e
00000350: 77f1 573e b694 b1be 6444 b5be 4993 df3c
00000360: 60e5 dcbd ac8f 66be aff5 22bd bb71 903d
00000370: 0420 02bc 4035 9dbd a37f 54be 30b2 84be
00000380: 99af d83d 0111 563e 1f49 0fbe 43fb 51be
00000390: 446b 21be 6243 d5bd 750f 4d3e 6707 ed3c
000003a0: f39f b6be 0421 98be ac9f c9bd e43d 65bd
000003b0: c19a c5bd 7418 f4be d6e6 3ebf a7a6 f2be
000003c0: 45c9 58bd 355b e3bd 9fb4 bfbe fa2f 35bf
000003d0: 148e 42bf a14e dbbe c618 f7bd 8a76 8abe
000003e0: 7456 a7be 0fa5 bdbe 69b5 99be dd59 eebd
000003f0: 1727 ba3d f8b4 95bc cd3c abbd 4998 93bd
