scripts/model/encoder_state_dict.pth (torch, 55208 bytes, 4 tensors)

conv1.weight f4 [16, 1, 5, 5]
0	0x3a81d1f9	0.0009904496
1	0xbcad04ee	-0.021120515
2	0x398816fb	0.00025957063
3	0x3cc54b06	0.024083626
4	0x3c153a22	0.009108098
5	0x3c53bcb5	0.012923409
6	0xbcb014d5	-0.021494308
7	0x3c7db900	0.015486002
8	0x3d530944	0.05152251
9	0xbb135f25	-0.002248713
10	0x3cb2aa2e	0.021809664
11	0xbdb40c7d	-0.087914445
12	0x3cc2bbd7	0.02377121
13	0x3c3b0764	0.011415336
14	0xbcb45764	-0.022014327
15	0xbd1e80b1	-0.03869695
16	0xbda2619e	-0.07928775
17	0x3d119e96	0.03555163
18	0x3c61ab01	0.013773681
19	0xbcb392bf	-0.02192056
20	0xbc65651c	-0.014001157
21	0x3c0fd455	0.008778651
22	0x3d66bfb0	0.05633515
23	0x3cac8f00	0.021064281
24	0x3c03ab01	0.008036376
25	0x3c154eb8	0.009113006
26	0x3cbfddc5	0.023421178
27	0x3d02daf9	0.03194711
28	0x3ccafeb6	0.024779659
29	0x3c89b8c1	0.01681173
30	0x3c0f5183	0.008747461
31	0x3d03b710	0.032157004
32	0x3d5f658e	0.05454021
33	0x3d8fcdcc	0.070216745
34	0x3caf75d1	0.021418484
35	0xbc407ad6	-0.011748036
36	0xbcbb7351	-0.022882136
37	0x3cfadaeb	0.030621966
38	0x3dc86609	0.09785087
39	0x3d203c04	0.039119735
40	0xbd68cdc8	-0.056836873
41	0xbdb0821b	-0.08618566
42	0xbcd2703d	-0.025688285
43	0x3d82c21c	0.0638468
44	0x3d2b4fdf	0.041824218
45	0xbd1372ff	-0.03599834
46	0xbd8df4ff	-0.06931495
47	0xbd22d3b3	-0.039752673
48	0x3d32afef	0.043624815
49	0x3ce48f33	0.027900314
50	0xbb863670	-0.004095845
51	0x3b8b39dd	0.004248841
52	0x3ca34ef6	0.019935112
53	0x3c90b959	0.017666506
54	0x3bf59c32	0.0074954266
55	0xbcd5a30c	-0.026078723
56	0xbc9af2b4	-0.018914558
57	0x3c6cdd50	0.014457062
58	0x3d348634	0.0440733
59	0x395c5147	0.00021011113
60	0xbd51416f	-0.051087793
61	0xbdb44a99	-0.08803291
62	0xbda11bdf	-0.07866644
63	0xbcaacb0d	-0.020848775
64	0x3b455dc5	0.0030115705
65	0x3c9fac4e	0.019491341
66	0xbc7a5e70	-0.015281305
67	0xbd97f770	-0.07420242
68	0xbda88112	-0.08227743
69	0xbd2f3798	-0.042777628
70	0x3cf1c7f0	0.029514283
71	0x3d3c4fa3	0.045974385
72	0x3c04b3aa	0.008099476
73	0xbc4027be	-0.011728225
74	0xbca55749	-0.020183222
75	0xbabea78e	-0.0014545785
76	0xbad36be2	-0.0016130174
77	0xbc953b9d	-0.018216902
78	0xbbfa1b07	-0.0076326164
79	0xb9bce1b2	-0.0003602631
80	0x3c31e9ae	0.010858936
81	0xbb1c268e	-0.0023826691
82	0xbd203f01	-0.039122585
83	0xbd121160	-0.0356611
84	0xbd060526	-0.032719754
85	0x3cbc706d	0.023002828
86	0x3c5a6741	0.013330282
87	0xbd7873ef	-0.060657438
88	0xbd9aa025	-0.075500764
89	0xbd3a7491	-0.045521323
90	0x3d01eb0d	0.031718303
91	0x3d6df625	0.05809607
92	0x3d27c2a3	0.040957104
93	0x3cbd5a8c	0.023114465
94	0x3c840589	0.01611592
95	0x3cd0061f	0.025393544
96	0x3d787d2c	0.06066625
97	0x3d8d938c	0.06912908
98	0x3d6a6677	0.057226624
99	0x3d11dcdf	0.03561103
100	0xbae54a44	-0.0017493446
101	0xbca0540b	-0.019571325
102	0xbc3bc54e	-0.011460615
103	0x3b691fda	0.0035571964
104	0xb9b8d646	-0.0003525486
105	0xbbf8d74d	-0.007594025
106	0xbc6f131a	-0.0145919565
107	0x3c82e7d3	0.015979683
108	0x3c6cec08	0.014460571
109	0x3b40890c	0.0029378561
110	0xbc730bd1	-0.01483436
111	0x3d3c9c30	0.04604739
112	0x3d75f46b	0.06004755
113	0x3c396640	0.011315882
114	0xbb5b99f1	-0.0033508504
115	0x3d3dc6db	0.04633222
116	0x3daedb33	0.08537903
117	0x3d0f7941	0.035027746
118	0xbd4ca53c	-0.049962267
119	0xbcecd913	-0.028912103
120	0x3d331832	0.043724246
121	0x3d48aa97	0.048990812
122	0xbcae958e	-0.021311548
123	0xbd063835	-0.032768447
124	0xbc81c1cc	-0.01583948
125	0xbae1e922	-0.0017235617
126	0x3d0c70a2	0.034287103
127	0x3d0ef459	0.034900997
128	0x3c2ffdd9	0.010741674
129	0xbb8c2fd8	-0.0042781644
130	0x3c9b444d	0.018953467
131	0x3d10ea29	0.035379563
132	0x3ac3d150	0.0014939699
133	0xbd579dae	-0.05264061
134	0xbd10787d	-0.035271157
135	0xbbfde7b7	-0.00774857
136	0xbd272c56	-0.040813766
137	0xbdf49243	-0.1194196
138	0xbdd8470f	-0.10560428
139	0xbcb45c2e	-0.022016611
140	0xbc62faae	-0.013853712
141	0xbd1c704d	-0.038193036
142	0xbc75a2a0	-0.014992386
143	0x3d5b9caa	0.053616203
144	0x3d460ae3	0.048350226
145	0xbc2d3a0a	-0.01057292
146	0xbb0050b0	-0.0019579343
147	0x3cf98a26	0.030461382
148	0x3d05c04d	0.032654095
149	0x3c2baa97	0.0104776835
150	0xbbb0b249	-0.005392347
151	0x3bda4f14	0.006662259
152	0x3954c3d8	0.00020290853
153	0xbcaad50b	-0.02085354
154	0xbbcdb335	-0.0062774667
155	0x3cbf9ae3	0.023389285
156	0x3c87492d	0.016514385
157	0xbda17d0c	-0.07885179
158	0xbe0282ec	-0.12745255
159	0xbd858535	-0.06519548
160	0x3c81f8a6	0.015865635
161	0xbd2c9edd	-0.04214369
162	0xbe4472a4	-0.19184357
163	0xbe6d95c9	-0.2320167
164	0xbe138e31	-0.1440971
165	0x3c1a0370	0.009400234
166	0xbd447e0c	-0.04797177
167	0xbe40ef55	-0.18841298
168	0xbe7aad5e	-0.24480197
169	0xbe0d5158	-0.13800561
170	0x3c3eb2c4	0.011639301
171	0xbcfeaae1	-0.03108734
172	0xbdccd102	-0.100008026
173	0xbe07a250	-0.13245511
174	0xbd8ec98c	-0.06972036
175	0x3c8c684b	0.017139575
176	0x3d41716e	0.047227316
177	0x3d4d7e4b	0.05016927
178	0x3cbdb70b	0.02315857
179	0x3ab08314	0.0013466799
180	0x3d412224	0.0471517
181	0x3dd22f94	0.10262981
182	0x3ddc7c6a	0.107659176
183	0x3d86c74a	0.0658098
184	0x3b8ce6db	0.004299981
185	0x3d8b4b3b	0.068014584
186	0x3df9f7fb	0.12205502
187	0x3e032ca5	0.1281
188	0x3da26804	0.07929996
189	0x3b8d6cc1	0.004315943
190	0x3d2ff4b9	0.042957995
191	0x3db7cd2d	0.08974681
192	0x3dbd4e8e	0.09243499
193	0x3d35f1ce	0.044420056
194	0x3b16da2b	0.0023018222
195	0x3be99da6	0.007129389
196	0x3cc3a0a4	0.02388031
197	0x3cac8e37	0.021063907
198	0x3b79fa94	0.003814374
199	0xbbb2dae4	-0.0054582227
200	0x3c447c6c	0.011992555
201	0x3c4a122c	0.012333434
202	0x3c1e3af7	0.009657613
203	0xbd320474	-0.043461278
204	0xbd0675b6	-0.0328271
205	0xbb7c9d86	-0.003854604
206	0x3cf25888	0.02958323
207	0x3d164065	0.036682505
208	0xbd954e89	-0.0729037
209	0xbd2a5c98	-0.04159221
210	0xbcd658df	-0.026165424
211	0x3d373f0f	0.04473787
212	0x3de1ae4c	0.110195726
213	0xbcfbf185	-0.030754814
214	0xbd626936	-0.05527612
215	0xbd2f91e0	-0.042863727
216	0x3bbb6ad5	0.0057195225
217	0x3dc205ff	0.094738
218	0x3cd97013	0.026542699
219	0xbcdf1759	-0.027232813
220	0xbcfc47a9	-0.030795889
221	0xbd0a0c78	-0.033703297
222	0x3ce9cb2a	0.028539259
223	0x3c8ba69b	0.017047217
224	0xbabc7dd5	-0.0014380763
225	0x3c6c5d09	0.014426478
226	0x3d0a37d3	0.033744644
227	0x3d956e93	0.07296481
228	0x3db652f8	0.08902544
229	0x3d670f0f	0.056410845
230	0x3d29d351	0.041461293
231	0x3d3839cb	0.04497699
232	0x3d4533ec	0.04814522
233	0x3d8a8dee	0.06765352
234	0x3d67c306	0.056582473
235	0x3bf15ba8	0.0073656626
236	0xbcbe50a7	-0.023231817
237	0xbda6ceac	-0.08144888
238	0xbd6799f9	-0.056543324
239	0xbad32143	-0.0016107935
240	0xbc9bebba	-0.019033302
241	0xbd4def97	-0.05027732
242	0xbd63e05f	-0.0556339
243	0xbd0ade83	-0.03390361
244	0xbbafa9c0	-0.005360812
245	0xbc7e036b	-0.015503745
246	0xbc63c5fc	-0.013902184
247	0xbc22fca9	-0.009947934
248	0xbb3c1381	-0.0028698149
249	0x3aeda6b3	0.0018131345
250	0x3ab9f50a	0.0014187407
251	0x3c3b60b6	0.011436632
252	0xbc1488aa	-0.009065786
253	0xbcc60802	-0.02417374
254	0x3c6f6720	0.014611989
255	0x3c13b22f	0.00901465

conv1.bias f4 [16]
0	0xbd41baf7	-0.047297444
1	0xbe385c7c	-0.1800403
2	0x3d893df8	0.06701273
3	0xbde13a48	-0.109974444
4	0xbde4f4fc	-0.111795396
5	0xbbd0e3f8	-0.0063748322
6	0x3e320519	0.17384757
7	0xbeee807e	-0.46582407
8	0xbd82dd20	-0.063898325
9	0xbe10eb5b	-0.14152281
10	0xbc885721	-0.016643109
11	0xbe81614b	-0.2526954
12	0x3d15fef2	0.036620088
13	0x3c0ac894	0.008470673
14	0xbdac0fe1	-0.08401466
15	0xbdebee92	-0.11520113

conv2.weight f4 [32, 16, 5, 5]
0	0xbd2cce57	-0.04218897
1	0x3d2d7484	0.042347446
2	0x3d6eeeda	0.058333255
3	0x3e438449	0.19093432
4	0x3dbdc0d7	0.09265297
5	0xbd9c646a	-0.0763634
6	0xbd820fde	-0.06350683
7	0x3e1d355d	0.15352388
8	0x3e2d5ab5	0.16929133
9	0x3f1d6c1b	0.6149308
10	0xbd25ba6a	-0.04046098
11	0x3d95d2cc	0.07315597
12	0xbd90208f	-0.0703746
13	0xbd81e548	-0.0634256
14	0x3eb4b5e2	0.35295016
15	0x3c38e4c2	0.011285009
16	0x3bb2cf83	0.005456866
17	0xbe0c3f7d	-0.13696094
18	0xbd7b0045	-0.061279554
19	0xbdd55b79	-0.10417838
20	0xbe132c0b	-0.1437227
21	0xbe3e7a50	-0.18601346
22	0xbe09dcdd	-0.13463159
23	0xbd09a967	-0.03360882
24	0xbc8e42a0	-0.017365754
25	0x3cf4dd92	0.02989081
26	0xbceb2889	-0.028705852
27	0xbefc7b68	-0.49312901
28	0xbf11ac39	-0.56903416
29	0x3fa72550	1.3058262
30	0x3d90be86	0.070675895
31	0x3e62ec1f	0.22160386
32	0xbed55aa8	-0.41670728
33	0x3e2dd9f3	0.16977672
34	0x3ee54755	0.44780985
35	0xbdadfccd	-0.084954835
36	0x3df43749	0.11924607
37	0xbc6675ad	-0.014066142
38	0xbe1692d4	-0.14704448
39	0xbcf376a1	-0.029719653
40	0x3d68ff45	0.05688407
41	0xbdd9dde8	-0.106380284
42	0x3da5115b	0.08059951
43	0x3d5714f0	0.052510202
44	0xbe46086f	-0.19339155
45	0x3ce0ec18	0.027456328
46	0xbcc7922a	-0.024361689
47	0xbd33059a	-0.043706514
48	0xbc23214e	-0.009956671
49	0x3d934a35	0.07191888
50	0xbd8a7f0f	-0.06762516
51	0xbd5953eb	-0.053058546
52	0xbdb9fe70	-0.09081733
53	0xbd899511	-0.06717885
54	0x3e6df71b	0.23238795
55	0xbe6e95a9	-0.23299278
56	0x3d897f50	0.06713736
57	0xbe05e336	-0.13074955
58	0x3efdb4bd	0.49551955
59	0x3da1f35d	0.07907746
60	0xbcf3cebd	-0.029761666
61	0x3d2298e1	0.039696578
62	0x3e108816	0.14114413
63	0xbe628439	-0.22120751
64	0xbe8e0f3e	-0.27746004
65	0x3e2783f3	0.16358928
66	0xbdb6b3c5	-0.08921007
67	0x3d06f544	0.032948747
68	0x3e2d496d	0.16922541
69	0xbdfb9927	-0.12285071
70	0x3c669940	0.014074624
71	0xbc057acc	-0.008146953
72	0xbe1583bf	-0.14601038
73	0xbd87a985	-0.0662413
74	0xbcb5fdc9	-0.02221574
75	0x3dbafa18	0.09129733
76	0x3e8bbf06	0.27294177
77	0x3d600e8a	0.054701366
78	0x3da7b0bb	0.081880055
79	0xbdf1cd8c	-0.11806783
80	0x3dfea230	0.124332786
81	0x3e26da0c	0.16294116
82	0xbe5bb910	-0.21457314
83	0xbfb65430	-1.4244442
84	0xbf424ed4	-0.7590153
85	0x3e11bf5c	0.14233154
86	0x3c1b7a44	0.0094896
87	0x3d6c5b05	0.05770399
88	0xbe268abc	-0.1626386
89	0xbe13108b	-0.1436178
90	0x3bf333cc	0.007421946
91	0x3d4435c1	0.047902826
92	0x3e243c62	0.16038659
93	0x3e821001	0.25402835
94	0x3e86904a	0.2628196
95	0x3cb4420f	0.022004155
96	0x3d8b0784	0.06788543
97	0x3d875648	0.06608254
98	0x3cf65ff0	0.030075043
99	0x3e34920a	0.17633834
100	0xbc88e5f8	-0.01671122
101	0x3d6c7545	0.057729024
102	0xbdd1fbf9	-0.10253138
103	0xbecb1d36	-0.39670724
104	0x3dfec01d	0.124389865
105	0xbd0b2b1c	-0.03397666
106	0x3dbb4ba5	0.091452874
107	0x3ec56596	0.38554066
108	0xba7d9425	-0.00096732593
109	0x3f32c231	0.6982756
110	0x3d38aa9c	0.04508458
111	0xbbc40cd3	-0.005982974
112	0xbd03deb0	-0.032194793
113	0x3e4c7f35	0.199704
114	0xbc079300	-0.008274794
115	0x3d5e01c9	0.05420092
116	0xbceed276	-0.02915309
117	0x3c6101f4	0.013733376
118	0x3e0be1aa	0.13660303
119	0x3b100c3f	0.0021979955
120	0xbce83059	-0.028343366
121	0xbde440ad	-0.111451484
122	0xbe066809	-0.13125624
123	0xbdc052ca	-0.09390791
124	0x3d548cd5	0.05189212
125	0xbdd00031	-0.101562865
126	0x3e020a05	0.12699135
127	0x3e042b06	0.12907037
128	0x3f42977e	0.7601241
129	0xbcb05caf	-0.02152857
130	0x3d3e9738	0.046530932
131	0x3e493f51	0.1965306
132	0x3ea8f299	0.32997587
133	0xbe7543c8	-0.23951638
134	0xbe72e67b	-0.23720734
135	0x3d38adac	0.0450875
136	0x3baa2d11	0.0051933606
137	0x3db9ffe7	0.090820126
138	0x3df93708	0.121686995
139	0xbd0ac9e6	-0.03388395
140	0xbd642543	-0.055699598
141	0xbcb9432a	-0.022615034
142	0xbe35022d	-0.17676611
143	0xbd1c057d	-0.03809117
144	0x3e1fa3a5	0.15589769
145	0xbd7e35f4	-0.062063172
146	0xbda1bc51	-0.07897247
147	0xbbbbadcc	-0.0057275053
148	0x3dd5b31b	0.10434552
149	0xbc07f443	-0.008297983
150	0xbc12e457	-0.008965573
151	0xbb2e7558	-0.0026620235
152	0xbeb0cadf	-0.34529778
153	0xbf2ae8aa	-0.6676127
154	0x3e87d9c4	0.2653333
155	0xbe1bcf61	-0.15215828
156	0x3e52674d	0.20547219
157	0xbea94551	-0.33060697
158	0xbea896b8	-0.3292749
159	0x3d2f7586	0.04283669
160	0xbd73b669	-0.05950013
161	0x3e224c52	0.15849426
162	0xbd95e68c	-0.07319364
163	0xbe5df053	-0.21673708
164	0xbde13aa0	-0.1099751
165	0xbcaa08e3	-0.02075619
166	0x3ddcddcd	0.10784493
167	0x3da7bd16	0.08190362
168	0x3ddc329f	0.10751843
169	0x3c81d3c6	0.015848052
170	0x3c986a68	0.018605426
171	0x3d099367	0.03358784
172	0xbcba9e9a	-0.022780705
173	0xbd9c59b7	-0.07634299
174	0xbd14c061	-0.03631628
175	0xbd75ede2	-0.060041316
176	0xbb88bfb6	-0.0041732443
177	0xbeb70826	-0.35748404
178	0xbaab4d6e	-0.001306934
179	0x3e6e77f4	0.23287946
180	0xbdc3441a	-0.09534474
181	0xbe2061bc	-0.15662283
182	0xbe5f6ca7	-0.21818791
183	0x3e9b87d1	0.30377057
184	0xbe9b2f62	-0.30309588
185	0xbe165b68	-0.14683306
186	0xbddaf6c1	-0.10691596
187	0xbd4852c4	-0.048907056
188	0xbef87664	-0.48527825
189	0xbcca24e5	-0.024675796
190	0xbcff9162	-0.031197254
191	0xbc05be2c	-0.008163016
192	0xbd527294	-0.0513788
193	0xbca553b0	-0.020181507
194	0xbd0b4f7f	-0.03401136
195	0xbc44dbb4	-0.012015272
196	0x3d7da4cf	0.06192475
197	0xbd4a5a30	-0.049402416
198	0xbde54bb6	-0.11196081
199	0xbdc87e3b	-0.097897016
200	0x3da5a29a	0.080876544
201	0x3dab11f3	0.08353033
202	0xbebceec2	-0.36900908
203	0xbe90a39f	-0.28249833
204	0x3fc85749	1.5651637
205	0xbce44001	-0.02786255
206	0x3dd8a576	0.10578434
207	0x3e373daf	0.17894624
208	0xbf80fb54	-1.0076699
209	0x3f091340	0.53545
210	0xbdbf0096	-0.09326284
211	0x3e57989d	0.21054311
212	0xbdc12cf8	-0.09432405
213	0x3e0ea51b	0.1393017
214	0x3d45e3e5	0.04831304
215	0x3dec54b5	0.11539594
216	0x3e353614	0.1769641
217	0x3d56ef5b	0.05247436
218	0xbdb15622	-0.08659007
219	0x3d4312fc	0.047625527
220	0x3d359ef9	0.04434106
221	0x3d82e42a	0.06391175
222	0x3d5c8b1e	0.05384361
223	0xbd8450c6	-0.06460719
224	0x3dc2e111	0.09515584
225	0xbc886029	-0.016647415
226	0xbd8b3f0d	-0.06799135
227	0x3dd4430c	0.10364351
228	0x3ece2109	0.4025958
229	0x3c90179f	0.017589388
230	0x3e4209d1	0.18949057
231	0x3d59b80c	0.053154036
232	0x3eb5a1d9	0.35475042
233	0x3f144d15	0.5793012
234	0xbd0f7867	-0.035026934
235	0x3e743ea4	0.2385202
236	0x3d4f162f	0.050558265
237	0xbdd68e04	-0.10476306
238	0x3e8d4de1	0.2759848
239	0xbda4fc99	-0.08055992
240	0x3db5bd4f	0.088739984
241	0x3e82283a	0.25421315
242	0xbd57ef0a	-0.0527182
243	0xbe6ac655	-0.2292722
244	0xbec1fbad	-0.37887326
245	0x3cadb149	0.0212027
246	0x3d179bd1	0.037013832
247	0x3d9a13e1	0.07523323
248	0xbd8668e5	-0.06562976
249	0x3e31f3a3	0.17378096
250	0x3e0e0c11	0.1387179
251	0x3e645f61	0.22302009
252	0xbf232dce	-0.6374177
253	0xbeb135a1	-0.34611228
254	0xbdfb3907	-0.122667365
255	0x3e13d7db	0.14437811

conv2.bias f4 [32]
0	0xbe82ba3f	-0.2553272
1	0xbd13ba9e	-0.036066644
2	0xbe2e2012	-0.17004421
3	0xbef17a71	-0.47163728
4	0xbde3e375	-0.11127368
5	0x3ead1692	0.33806282
6	0xbe628155	-0.22119649
7	0x3f2700d4	0.6523564
8	0x3c67c485	0.014145975
9	0xbe8a940e	-0.27066082
10	0xbe8a0076	-0.26953477
11	0xbe04ea30	-0.1297996
12	0x3e8b1050	0.27160883
13	0xbf483aba	-0.7821461
14	0xbf29f9c5	-0.66396743
15	0xbe162256	-0.14661536
16	0xbea0a06e	-0.31372398
17	0xbe124244	-0.14283091
18	0xbf322f3b	-0.6960332
19	0xbe3e58b2	-0.18588522
20	0xbdc51898	-0.096238315
21	0xbef3c62b	-0.47612128
22	0x3e180bf8	0.14848316
23	0xbe2882ba	-0.16456118
24	0x3e7972ae	0.24360153
25	0xbf17ebe9	-0.59344345
26	0xbed5a30d	-0.4172596
27	0xbe91f814	-0.2850958
28	0xbf822239	-1.0166694
29	0x3d91b4cb	0.07114562
30	0xbf02682b	-0.509402
31	0xbf220602	-0.6329042
