scripts/model/net_state_dict.pth (torch, 76238 bytes, 6 tensors)

conv1.weight f4 [16, 1, 5, 5]
0.0018925784 -0.3678856 -0.44026053 -0.38264072 -0.12870058 -0.2689065 -0.1579971 -0.47408414
-0.1926273 -0.18726121 0.17461373 -0.036938015 -0.0051056067 0.286324 0.2812803 0.48662907
0.35210603 0.2182551 0.31706 0.035848666 0.10636352 0.47192296 0.36369732 -0.0049811373
0.04461461 0.03645847 0.15320191 0.37930813 0.12662587 0.054266304 -0.7342 -0.65967387
-0.23963775 0.049706735 -0.2597993 -0.41512242 -0.5810387 -0.59915733 -0.4423594 -0.07678711
0.2983109 0.14508106 -0.13415109 -0.15883899 -0.19472195 0.518978 0.47539818 0.37157306
0.2930668 0.07102671 0.13245592 0.20684882 0.16409232 0.18133709 -0.38005048 0.37376174
0.24916427 0.13304216 -0.4001958 -0.25053445 -0.12772848 -0.23495972 -0.20002235 -0.15868798
0.2352238 -0.3132108 -0.05901956 0.044834808 0.22278558 0.3040776 -0.21128185 0.24813612
0.1802651 -0.14458801 -0.0059784786 0.3765274 0.10708123 0.017263614 -0.465021 -0.6734531
0.101570934 0.22014813 0.017713513 -0.7890695 -0.23468658 0.27769977 0.06119453 -0.29652902
-1.257729 0.055244707 0.24063353 -0.0117048705 -0.5968698 -0.6811771 0.08154235 0.0041637905
-0.116338916 -0.72918105 -0.4274339 0.10409336 -0.30028582 -0.19865897 -0.23214528 0.20768063
-0.08388779 -0.08335231 -0.23641086 0.04145848 0.06570893 -0.0127672795 0.06733555 0.16499561
0.2942324 0.05405622 0.2687141 0.07697471 0.11371126 0.0992616 0.32738844 0.36885962
0.13027349 -0.07235861 0.14090753 -0.056481622 -0.0863043 -0.021902952 -0.49222857 -0.52662456
0.06448754 0.20230949 -0.5040973 -0.5298488 -0.116320536 0.3579324 0.49433118 -0.15181404
-0.2939053 -0.045360256 0.38958997 0.32720762 -0.24756376 0.017156338 0.07449987 0.24352318
0.21029061 0.0034922995 -0.028617812 0.13346757 0.20817523 -0.03384358 0.5412295 0.16250096
0.3053923 0.14240235 0.24479042 0.326145 0.276737 0.08267608 0.21889983 0.07313239
0.11532689 -0.031226406 0.07671866 -0.30218783 -0.4867117 -0.760239 -0.7406568 -1.1407012
-0.826788 -0.37432393 -0.6497223 -0.6112979 -0.01020018 0.03251458 0.12957986 0.43738267
0.37923545 0.47254923 0.41230106 0.2598197 0.28909007 0.16613032 0.2075423 0.13969138
0.25268835 -0.501853 -0.41851217 -0.24994363 -0.14572877 0.060484566 -0.72316563 -0.4008852
-0.5714207 -0.37013325 0.01779081 0.01898204 0.12504002 -0.13441968 -0.13261868 -0.23095216
-0.09798848 0.12231687 0.2309107 -0.19657472 -0.26763147 0.24395603 0.61031 0.30647653
-0.32422793 -0.26017544 0.4675538 0.61237544 -0.020563861 0.13801499 0.11243422 0.25244114
0.27908617 -0.1363304 0.07823583 -0.23512623 -0.059234492 -0.30433306 -0.32671878 -0.06793196
-0.19825208 -0.3958474 -0.07917722 0.22795053 -0.095289566 0.13228387 0.29530182 0.5143576
-0.0026094373 -0.32912612 -0.06780608 0.39528167 0.05772426 -0.3340717 -0.094161764 0.18617572
0.033563193 -0.26658598 -0.24939625 0.19577838 0.13539289 -0.45663926 -0.35829222 -0.0328753
0.39785042 0.08777599 0.34412912 0.35384747 0.0195263 -0.3293282 -0.15686849 0.59653145
00000000: 6510 f83a 805b bcbe d469 e1be 7ce9 c3be
00000010: 16ca 03be 1dae 89be fec9 21be 28bb f2be
00000020: 1740 45be 67c1 3fbe f1cd 323e 514c 17bd
00000030: ef4c a7bb 0f99 923e f903 903e 7227 f93e
00000040: 3e47 b43e 447e 5f3e b055 a23e 0dd6 123d
00000050: 1ed5 d93d e39f f13e 8936 ba3e cf38 a3bb
00000060: cfbd 363d 7a55 153d f6e0 1c3e ad34 c23e
00000070: 36aa 013e 5846 5e3d 88f4 3bbf 63e0 28bf
00000080: 9963 75be 4a99 4b3d 6a04 85be ed8a d4be
00000090: f4be 14bf 6062 19bf ee7c e2be 8f42 9dbd
000000a0: 35bc 983e 2190 143e e75e 09be b0a6 22be
000000b0: 3165 47be bedb 043f 6467 f33e d33e be3e
000000c0: da0c 963e 7476 913d 86a2 073e 2dd0 533e
000000d0: d107 283e 6eb0 393e fa95 c2be b35d bf3e
000000e0: eb24 7f3e 343c 083e 77e6 ccbe 0d46 80be
000000f0: 41cb 02be 4899 70be a9d2 4cbe 1a7f 22be
00000100: 82de 703e 2a5d a0be 7fbe 71bd b4a4 373d
00000110: e721 643e 0fb0 9b3e 455a 58be 6517 7e3e
00000120: 6a97 383e e10e 14be 1de7 c3bb 33c8 c03e
00000130: 674d db3d 6c6c 8d3c 3c17 eebe 6c67 2cbf
00000140: 6c04 d03d 836e 613e ee1b 913c 7500 4abf
00000150: ae51 70be aa2e 8e3e 1ea7 7a3d a7d2 97be
00000160: 44fd a0bf 4648 623d a368 763e c9c5 3fbc
00000170: 76cc 18bf 9f61 2ebf adff a63d 6870 883b
00000180: 1943 eebd 9cab 3abf 9ed8 dabe e62e d53d
00000190: 10bf 99be 426d 4bbe 7eb7 6dbe 3baa 543e
000001a0: 5dcd abbd 9eb4 aabd b015 72be 5ed0 293d
000001b0: 6792 863d da2d 51bc 39e7 893d 9cf4 283e
000001c0: a1a5 963e 0e6a 5d3d e594 893e eba4 9d3d
000001d0: 73e1 e83d aa49 cb3d 759f a73e 2bdb bc3e
000001e0: 6a66 053e c030 94bd 104a 103e 4659 67bd
000001f0: 4fc0 b0bd d26d b3bc 6205 fcbe ded0 06bf
00000200: 0b12 843d 382a 4f3e 850c 01bf 2ca4 07bf
00000210: 7639 eebd ea42 b73e fa18 fd3e 2475 1bbe
00000220: c17a 96be adcb 39bd 5678 c73e c287 a73e
00000230: 5b81 7dbe 738b 8c3c 6393 983d 245e 793e
00000240: 6c56 573e 10df 643b e76f eabc b9ab 083e
00000250: e32b 553e 919f 0abd 048e 0a3f a766 263e
00000260: 615c 9c3e ecd1 113e 57aa 7a3e 7afc a63e
00000270: 79b0 8d3e 1452 a93d 4727 603e 6fc6 953d
00000280: 8130 ec3d 85ce ffbc ac1e 9d3d 5db8 9abe
00000290: 4732 f9be 069f 42bf af9b 3dbf 7f02 92bf
000002a0: 61a8 53bf 63a7 bfbe 3354 26bf 057e 1cbf
000002b0: a81e 27bc 022e 053d 95b0 043e 9ff0 df3e
000002c0: 262b c23e f9f1 f13e 2019 d33e 1607 853e
000002d0: 9d03 943e 111e 2a3e f885 543e 420b 0f3e
000002e0: 5e60 813e 7079 00bf 3a47 d6be 39f1 7fbe
000002f0: ec39 15be aabe 773d 6221 39bf d340 cdbe
00000300: a148 12bf 1b82 bdbe 08be 913c 3980 9b3c
00000310: 7e0a 003e 50a5 09be 31cd 07be b97e 6cbe
00000320: 2fae c8bd 4481 fa3d db73 6c3e e24a 49be
00000330: fe06 89be 9ccf 793e 473d 1c3f 7eea 9c3e
00000340: 3401 a6be b735 85be 3663 ef3e a3c4 1c3f
00000350: 8b75 a8bc cd53 0d3e ea43 e63d f73f 813e
00000360: 62e4 8e3e 329a 0bbe 1b3a a03d eec4 70be
00000370: de9f 72bd 8bd1 9bbe af47 a7be e91f 8bbd
00000380: 9802 4bbe 83ac cabe ab27 a2bd dd6b 693e
00000390: 2d27 c3bd 6c75 073e cd31 973e f1ac 033f
000003a0: 1803 2bbb 3883 a8be eadd 8abd 5c62 ca3e
000003b0: 4670 6c3d 720b abbe e2d7 c0bd d9a4 3e3e
000003c0: 8f79 093d f57d 88be bb61 7fbe 217a 483e
000003d0: 6fa4 0a3e 9fcc e9be 1472 b7be 40a8 06bd
000003e0: 0db3 cb3e e6c3 b33d b131 b03e 7f2b b53e
000003f0: 9ef5 9f3c b59d a8be 22a2 20be 49b6 183f

conv1.bias f4 [16]
-0.37178162 0.022983735 -0.049093645 0.089483276 -0.036765233 -0.14947128 -0.086682595 -0.20265052
-0.13556337 -0.25159743 -0.20721814 0.21599549 0.026011221 -0.01635235 -0.06573415 0.20995857
00000000: 295a bebe 6348 bc3c 6b16 49bd 0243 b73d
00000010: 2497 16bd 000f 19be a586 b1bd 9e83 4fbe
00000020: 20d1 0abe 61d1 80be fe30 54be ec2d 5d3e
00000030: 7c15 d53c 5df5 85bc a09f 86bd 61ff 563e

conv2.weight f4 [32, 16, 5, 5]
-0.13152479 -0.10764089 0.038936216 -0.15260649 -0.13289192 0.12286476 -0.1568579 -0.081260666
-0.08163961 -0.03233793 0.088141896 -0.2017461 -0.2368597 -0.12689121 -0.22059026 0.20973809
0.08856413 0.35759708 0.23559536 -0.17781417 0.12961587 0.24248455 0.37001038 0.31046158
0.025315294 -0.011620852 -0.12387263 -0.076019764 0.0004446869 -0.17165631 0.16441311 -0.075169295
-0.095750235 0.29640645 0.0010766517 -0.09908027 -0.08437449 -0.06525436 -0.027242409 -0.12977749
0.0583684 0.44277966 0.58672655 0.4042015 0.13830467 -0.0140864095 0.113866195 0.16753495
0.10303668 0.0864564 -0.12663901 -0.13803393 -0.21811642 -0.062924676 0.14943522 -0.2694861
-0.06621567 -0.0579614 -0.14098947 -0.050214652 0.011445792 -0.01979294 -0.10143796 0.0067109894
-0.096466914 -0.1538517 -0.03972698 -0.002717107 -0.10849722 -0.377532 0.04582188 0.21097459
0.03810432 -0.025793545 0.07956101 0.3267687 0.21217075 0.092959836 -0.05550981 -0.054366745
0.14282253 0.04534653 0.21670882 0.019112667 0.20037137 0.002225803 -0.0013973066 0.12229378
0.26981357 0.11105133 -0.27195454 -0.080415 -0.17233124 -0.008474914 0.27442133 -0.25805894
-0.494426 -0.22878002 0.10350654 0.327824 -0.23620728 -0.064785905 0.06012999 0.075936966
0.019705413 -0.073852904 -0.022949282 -0.01956216 -0.10485304 -0.054216594 0.053521525 -0.02351722
-0.27368575 -0.18256658 -0.19494443 -0.081102796 -0.020501241 -0.00083435973 -0.09456115 -0.13665076
0.04478885 0.13416037 0.10792681 -0.08571383 -0.11522604 -0.20750673 -0.028626952 0.14934197
0.34891993 0.16894762 0.21945773 0.07879215 0.030303631 0.11080576 -0.08948834 0.05760194
-0.0819638 0.009759784 -0.05304985 -0.096934855 -0.12381257 -0.13433291 0.040507022 -0.12321369
-0.15810567 -0.13689157 -0.13127859 -0.0851257 -0.16199347 -0.22293554 0.16509856 -0.16278692
-0.23761521 0.047769688 0.046033546 -0.019230502 -0.04727878 0.12906367 -0.045361623 0.18758956
-0.2600695 -0.21043156 0.07159761 -0.08293495 0.017420348 -0.41472054 -0.18361855 -0.22088632
-0.15900558 0.17607294 -0.016202137 -0.05459786 -0.023667037 0.05394002 0.11115291 0.106157504
-0.14991814 -0.29485393 -0.01657849 0.23718333 0.028031822 0.0004740192 -0.012829265 0.022821065
0.17844686 -0.151872 -0.028128952 0.011818298 -0.012218374 0.054768924 -0.046803147 -0.2557228
-0.2129358 -0.21136956 0.1327879 -0.070346914 -0.074172534 -0.24564162 -0.13544822 -0.060782317
-0.11389003 -0.07702683 -0.3462664 -0.024202837 -0.050869644 -0.16185077 -0.00092956395 -0.083206385
-0.029389493 -0.18785636 -0.123071924 -0.016897159 -0.04225737 -0.1262498 -0.15903413 -0.015710372
0.18481769 -0.0472592 -0.1562858 -0.012978662 -0.05172273 0.05753816 0.11650079 0.1363886
0.039872278 0.051104162 -0.20750391 0.131524 0.2393853 0.074445546 0.021394528 -0.15640566
0.2636881 0.10076602 0.04748781 0.068455115 -0.18667404 -0.027373923 0.022856645 -0.06957926
-0.085683376 0.015155541 0.106524184 -0.03898592 -0.15524663 0.19406018 0.027037397 -0.17547522
0.18255273 0.1303666 0.53775185 0.15655181 0.21135826 0.19911033 -0.043487627 0.20920669
00000000: 6fae 06be d472 dcbd 957b 1f3d e044 1cbe
00000010: d214 08be 85a0 fb3d 5b9f 20be fe6b a6bd
00000020: ab32 a7bd c774 04bd bd83 b43d 8896 4ebe
00000030: 598b 72be c5ef 01be 6ae2 61be 95c5 563e
00000040: 1c61 b53d f716 b73e e93f 713e eb14 36be
00000050: 06ba 043e df4d 783e 0072 bd3e d2f4 9e3e
00000060: 0562 cf3c 6365 3ebc efb0 fdbd 40b0 9bbd
00000070: de24 e939 acc6 2fbe e95b 283e 5cf2 99bd
00000080: b318 c4bd 96c2 973e 701e 8d3a 99ea cabd
00000090: 88cc acbd 14a4 85bd 792b dfbc 64e4 04be
000000a0: b413 6f3d 04b4 e23e b633 163f 80f3 ce3e
000000b0: bd9f 0d3e afca 66bc ae32 e93d 488e 2b3e
000000c0: e504 d33d 0e10 b13d a8ad 01be c458 0dbe
000000d0: e959 5fbe a7de 80bd 8c05 193e 15fa 89be
000000e0: 159c 87bd ef68 6dbd 8b5f 10be e1ad 4dbd
000000f0: 2287 3b3c ce24 a2bc b5be cfbd dce7 db3b
00000100: 7290 c5bd 4d8b 1dbe c2b8 22bd 7e11 32bb
00000110: ca33 debd e04b c1be b9af 3b3d b909 583e
00000120: 4713 1c3d fc4c d3bc e2f0 a23d 3a4e a73e
00000130: 4a43 593e ba61 be3d 415e 63bd aaaf 5ebd
00000140: 1240 123e 48bd 393d ebe8 5d3e 2b92 9c3c
00000150: 272e 4d3e c7de 113b d425 b7ba 2975 fa3d
00000160: 0125 8a3e e16e e33d a03d 8bbe 9fb0 a4bd
00000170: 9a77 30be 5eda 0abc f480 8c3e 4d20 84be
00000180: 6825 fdbe 4f45 6abe 3dfb d33d 8cd8 a73e
00000190: 52e0 71be 79ae 84bd dd4a 763d d784 9b3d
000001a0: 3f6d a13c 3140 97bd 2200 bcbc d340 a0bc
000001b0: 31bd d6bd 3812 5ebd 6339 5b3d 2fa7 c0bc
000001c0: 8a20 8cbe bcf2 3abe 839f 47be 3919 a6bd
000001d0: 38f2 a7bc efb8 5aba 47a9 c1bd 2dee 0bbe
000001e0: 8374 373d 5661 093e bb08 dd3d bc8a afbd
000001f0: a1fb ebbd a57c 54be 1283 eabc 1aed 183e
00000200: a2a5 b23e 9b00 2d3e 87b9 603e c75d a13d
00000210: 523f f83c 21ee e23d aa45 b7bd 03f0 6b3d
00000220: a3dc a7bd 80e7 1f3c cd4a 59bd c885 c6bd
00000230: 7291 fdbd 918e 09be b1ea 253d 7657 fcbd
00000240: 74e6 21be 4e2d 0cbe e56d 06be 6256 aebd
00000250: 9ee1 25be 3749 64be 990f 293e 9db1 26be
00000260: 6751 73be 26aa 433d ac8d 3c3d 4989 9dbc
00000270: 65a7 41bd 4429 043e 1ccd 39bd 7a17 403e
00000280: d427 85be 5f7b 57be c5a1 923d cdd9 a9bd
00000290: 1eb5 8e3c 4056 d4be 8006 3cbe 0630 62be
000002a0: 5cd2 22be 774c 343e 58ba 84bc 01a2 5fbd
000002b0: 60e1 c1bc 36f0 5c3d 23a4 e33d 1b69 d93d
000002c0: 2484 19be 18f7 96be 9dcf 87bc 30e0 723e
000002d0: fea2 e53c c885 f839 d631 52bc 3ef3 ba3c
000002e0: c6ba 363e 5584 1bbe b06e e6bc 89a1 413c
000002f0: 932f 48bc 6155 603d a8b4 3fbd 19ee 82be
00000300: d80b 5abe 4371 58be 8df9 073e 0b12 90bd
00000310: c5e7 97bd 7a89 7bbe f0b2 0abe e1f6 78bd
00000320: 2d3f e9bd 3ec0 9dbd d449 b1be 0745 c6bc
00000330: b05c 50bd 35bc 25be fbad 73ba 1c68 aabd
00000340: 3cc2 f0bc 6b5d 40be 220d fcbd e96b 8abc
00000350: 1016 2dbd a147 01be d8d9 22be 0ab3 80bc
00000360: d940 3d3e dd92 41bd 6209 20be 74a4 54bc
00000370: 37db 53bd 22ad 6b3d f797 ee3d 74a9 0b3e
00000380: 1d51 233d 9952 513d e87b 54be 3aae 063e
00000390: 6c21 753e e876 983d 9443 af3c ce28 20be
000003a0: 2002 873e 6a5e ce3d 9482 423d 3232 8c3d
000003b0: 7b27 3fbe 473f e0bc dc3d bb3c 927f 8ebd
000003c0: c47a afbd f24e 783c 5a29 da3d b3af 1fbd
000003d0: f9f8 1ebe b6b7 463e 887d dd3c c7af 33be
000003e0: 1aef 3a3e d27e 053e 1baa 093f 1e4f 203e
000003f0: 4d6e 583e 94e3 4b3e 1520 32bd 473a 563e

conv2.bias f4 [32]
-0.094504714 -0.1839898 -0.15970749 -0.041287344 -0.06755089 0.017478695 -0.13176581 -0.13321573
0.014667767 -0.2527376 -0.18072821 -0.12023183 -0.19064632 -0.15673989 -0.23891206 -0.19615534
-0.026208896 -0.16688213 -0.11138631 -0.06576802 -0.07252227 -0.036251266 -0.20987312 -0.17562446
-0.1299303 -0.22654879 -0.005294954 -0.0820872 -0.0884884 -0.23551679 -0.23154373 -0.02070699
00000000: b08b c1bd d267 3cbe 5c8a 23be eb1c 29bd
00000010: 1f58 8abd 7b2f 8f3c 9eed 06be b469 08be
00000020: 1351 703c d366 81be d110 39be 1b3c f6bd
00000030: ca38 43be 6c80 20be 5da5 74be f2dc 48be
00000040: 0ab4 d6bc 26e3 2abe 811e e4bd 62b1 86bd
00000050: 8e86 94bd 357c 14bd fbe8 56be e6d6 33be
00000060: 730c 05be 68fc 67be 4b81 adbb 551d a8bd
00000070: 6839 b5bd 502b 71be cd19 6dbe b5a1 a9bc

fc.weight f4 [10, 512]
0.22527888 0.16609977 0.020134686 -0.36842567 0.38848028 -0.2514924 -0.12529221 -0.29620633
0.21554902 0.017739365 0.045410447 -0.08287539 0.17795548 0.10886211 0.23245408 -0.20524998
0.40198734 0.14584251 -0.24911474 -0.031308763 0.047392804 -0.39748034 -0.248569 -0.15395264
0.12436917 0.13831478 0.021171425 -0.8554085 0.14361112 0.325382 -0.023327984 -0.32345018
-0.14960484 -0.07536572 0.02680509 -0.23128958 -0.37439945 -0.13830797 -0.08668581 -0.2141456
-0.41187692 -0.23642832 -0.05801674 0.087502055 -0.18837552 -0.008101488 0.42249542 0.1392925
0.2247037 -0.051578447 -0.18146127 -0.15408218 -0.05599721 0.08666316 -0.22376561 -0.15250582
0.10724767 0.2452895 -0.17438324 -0.30613256 -0.048805755 -0.036431164 -0.09157118 -0.15212491
0.24193393 0.32129136 0.041707397 0.031420503 0.3428271 -0.16009496 -0.08843132 -0.23319954
-0.052811958 -0.21250118 -0.70962507 -0.00042627088 0.15441327 0.2653143 0.0901803 -0.054025404
-0.0048098057 0.15359181 -0.1204476 -0.13426736 -0.21352974 0.12561679 0.19775952 0.27566275
-0.03839488 -0.05093866 0.08441773 0.07546447 -0.17312136 -0.8140512 -0.874605 -0.2322751
0.033550195 0.0788824 0.31956694 0.11411659 -0.5940699 0.06637736 0.12945083 -0.28277224
-0.5496779 -0.29958078 0.015681794 -0.16226903 -0.28147286 -0.18706925 0.20056622 0.122949176
-0.046776433 0.059252094 0.21100225 0.18856382 -0.34978458 -0.16272008 0.0066331187 -0.023508841
-0.2092532 -0.30756485 -0.26831982 -0.3396473 0.09403035 0.22962539 -0.22970557 -0.09559526
0.15141964 0.24249692 -0.2085383 -0.2786568 -0.4843882 0.058337305 -0.09400647 -0.1253928
0.15772724 0.015685841 -0.012886716 0.2554662 0.15879248 0.20670962 0.24138722 0.1641933
0.07604584 0.21611302 0.004604899 0.1541876 0.013450007 -0.029071365 0.11205279 0.3650251
0.27546585 -0.1522481 -0.12609795 -0.04239074 0.17485476 0.1847266 0.014776866 -0.108173646
-0.10651621 0.3405967 -0.045366667 -0.3016724 0.2959134 0.38573322 -0.07094206 0.16500413
0.33080134 0.28042346 -0.18194191 -0.12074728 0.013972663 -0.108920835 -0.3970109 -0.25265327
0.12134491 0.065389596 -0.11264381 -0.15529048 0.05711367 -0.13486727 -0.46049407 0.510576
-0.30819073 -0.19903892 0.30998608 -0.052788135 -0.030809447 -0.5326167 -0.03367738 -0.10369628
-0.07692065 -0.024384284 -0.12721924 -0.28222567 -0.016832171 0.17197749 -0.2498921 0.19210029
0.10135562 0.304188 0.04695886 0.5941051 0.031899948 -0.18396856 -0.040598482 -0.011342873
-0.07746347 -0.08375819 0.29897007 0.00012964809 -0.48933482 0.050686188 0.06663599 0.08643601
-0.11726725 -0.17442782 -0.052499615 -0.13923328 -0.083074175 -0.38097414 0.24368113 0.36478975
0.013428725 0.07318113 -0.025050316 -0.17052472 -0.2676945 -0.11598178 -0.081789084 0.17073782
-0.21193333 -0.13296543 0.0017814359 0.22089355 -0.21837834 0.45952803 0.05495872 -0.1829614
-0.05194314 -0.099986024 0.077135235 -0.24965164 -0.049100872 0.15061894 -0.062454496 -0.009831534
0.20743024 -0.06901725 -0.28001663 -0.028670475 -0.35241207 -0.06795177 0.21424398 0.21759209
00000000: 82af 663e 0f16 2a3e 7ff1 a43c 4aa2 bcbe
00000010: e3e6 c63e 9dc3 80be 9a4c 00be 5ba8 97be
00000020: e2b8 5c3e 2552 913c 4e00 3a3d 93ba a9bd
00000030: f639 363e 19f3 de3d 7108 6e3e 0d2d 52be
00000040: 49d1 cd3e bd57 153e ef17 7fbe 9e3d 00bd
00000050: f51e 423d 8b82 cbbe df88 7ebe c3a5 1dbe
00000060: 43b5 fe3d 64a2 0d3e b26f ad3c 0dfc 5abf
00000070: cb0e 133e 7898 a63e 541a bfbc 439b a5be
00000080: 0332 19be 5859 9abd 5996 db3c 2dd7 6cbe
00000090: 49b1 bfbe 9ba0 0dbe 5488 b1bd fc48 5bbe
000000a0: 88e1 d2be 441a 72be f6a2 6dbd 4734 b33d
000000b0: 83e5 40be 1bbc 04bc 5251 d83e b1a2 0e3e
000000c0: ba18 663e ec43 53bd fcd0 39be b8c7 1dbe
000000d0: 555d 65bd 747c b13d d022 65be 7c2a 1cbe
000000e0: aba4 db3d 2c2d 7b3e 8591 32be 68bd 9cbe
000000f0: 8be8 47bd d838 15bd ac89 bbbd a2c6 1bbe
00000100: 87bd 773e 4d80 a43e 60d5 2a3d c9b2 003d
00000110: 0987 af3e efef 23be 7b1b b5bd dccb 6ebe
00000120: 5a51 58bd e999 59be fda9 35bf 1c7d dfb9
00000130: 831e 1e3e 47d7 873e 73b0 b83d be49 5dbd
00000140: 939b 9dbb 2c47 1d3e 3bad f6bd 627d 09be
00000150: 8aa7 5abe b0a1 003e 7981 4a3e ab23 8d3e
00000160: f343 1dbd 0ea5 50bd 34e3 ac3d 1e8d 9a3d
00000170: ba46 31be a965 50bf 1de6 5fbf 86d9 6dbe
00000180: ee6b 093d 198d a13d 479e a33e f5b5 e93d
00000190: f714 18bf daf0 873d c28e 043e 86c7 90be
000001a0: b1b7 0cbf a762 99be 1b77 803c da29 26be
000001b0: 361d 90be 158f 3fbe 3b61 4d3e c7cc fb3d
000001c0: a598 3fbd 53b2 723d f910 583e e016 413e
000001d0: f716 b3be 18a0 26be a25a d93b 9d95 c0bc
000001e0: 7946 56be 2479 9dbe 3761 89be 40e6 adbe
000001f0: fc92 c03d eb22 6b3e f037 6bbe 73c7 c3bd
00000200: c00d 1b3e 1d51 783e 108b 55be 1bac 8ebe
00000210: bb01 f8be 19f3 6e3d 7786 c0bd f866 00be
00000220: 4083 213e 987f 803c ce22 53bc 77cc 823e
00000230: 7f9a 223e b0ab 533e 362e 773e 4a22 283e
00000240: ecbd 9b3d bb4c 5d3e b1e4 963b 5be3 1d3e
00000250: 6b5d 5c3c 1227 eebc ef7b e53d 92e4 ba3e
00000260: dc09 8d3e ede6 1bbe d21f 01be eaa1 2dbd
00000270: 200d 333e f828 3d3e ab1a 723c 258a ddbd
00000280: 2c25 dabd b162 ae3e 66d2 39bd ce74 9abe
00000290: f681 973e d37e c53e 124a 91bd d8f6 283e
000002a0: cb5e a93e aa93 8f3e fb4e 3abe 5a4a f7bd
000002b0: 99ed 643c e311 dfbd 0345 cbbe c55b 81be
000002c0: ae83 f83d fbea 853d ccb1 e6bd 7804 1fbe
000002d0: 06f0 693d a51a 0abe e1c5 ebbe 1cb5 023f
000002e0: 2dcb 9dbe dcd0 4bbe 7fb6 9e3e 5f38 58bd
000002f0: 1864 fcbc 9159 08bf 4bf1 09bd b75e d4bd
00000300: 9388 9dbd 8dc1 c7bc c345 02be e27f 90be
00000310: 9fe3 89bc de1a 303e b7e3 7fbe f0b5 443e
00000320: 8993 cf3d 88be 9b3e ef57 403d 4617 183f
00000330: 85a9 023d 4162 3cbe 984a 26bd 75d7 39bc
00000340: 2ba5 9ebd 6a89 abbd 9b12 993e 25f2 0739
00000350: 188a fabe 529c 4f3d 7378 883d 5d05 b13d
00000360: d029 f0bd 359d 32be d609 57bd 2b93 0ebe
00000370: cb22 aabd 0b0f c3be 8c87 793e b9c5 ba3e
00000380: 2804 5c3c fddf 953d 5236 cdbc 089e 2ebe
00000390: 410f 89be db87 edbd 0981 a7bd e5d5 2e3e
000003a0: 0d05 59be 1728 08be 127f e93a eb31 623e
000003b0: 929e 5fbe 4247 eb3e 651c 613d 3c5a 3bbe
000003c0: 54c2 54bd 79c5 ccbd 14f9 9d3d aea4 7fbe
000003d0: ff1d 49bd da3b 1a3e 49d0 7fbd 7114 21bc
000003e0: 9868 543e ea58 8dbd 575e 8fbe 58de eabc
000003f0: 5b6f b4be 4c2a 8bbd c662 5b3e 76d0 5e3e

fc.bias f4 [10]
-0.1468231 0.10641232 0.1722289 -0.1345638 0.08241413 0.17735234 -0.12034092 0.1531329
-0.1825513 -0.11477464
00000000: cb58 16be b4ee d93d c65c 303e 18cb 09be
00000010: bdc8 a83d da9b 353e 4d75 f6bd dfce 1c3e
00000020: baee 3abe f70e ebbd
