scripts/model/net_state_dict.pth (torch, 76238 bytes, 6 tensors)

conv1.weight f4 [16, 1, 5, 5]
-0.08085504 -0.31048837 0.0771159 0.078460574 0.17944838 -0.27337563 -0.5020323 -0.036522225
0.057254165 0.40031144 -0.78238404 -0.69669217 0.047055464 0.35283712 0.41217914 -0.465499
-0.32526705 0.08308158 0.30164847 0.37575698 -0.40336716 -0.25374022 0.05985138 0.29361835
-0.034231007 -0.13685071 0.18270959 0.30712888 0.17011875 0.18313833 -0.43771717 -0.19759211
0.11093357 0.38910565 0.1594767 -0.7956349 -0.86806524 -0.4912432 -0.3980452 -0.33556342
-0.4215258 -0.634687 -1.0259058 -0.8108048 -0.6822408 0.28598323 0.08641188 0.025704931
0.008871291 -0.15943116 0.07834615 0.22682717 0.16407926 -0.08795971 -0.28462422 -0.07400746
-0.204021 -0.4438116 -0.5334899 -0.101220235 -0.4719032 -0.040164493 0.1000466 -0.2110936
0.15976551 -0.24375014 0.22463593 0.29773661 0.5037179 0.3171259 -0.028693005 0.012941339
0.012104051 0.19767398 0.40081757 0.15872352 0.3642462 0.42973623 0.12450893 -0.3063699
-0.040798 0.33290806 0.14019471 -0.32974976 -0.4666257 -0.108957775 -0.11030067 -0.30237192
-0.85345197 -0.33360428 -0.08859918 -0.47118852 -0.76173085 -0.27810454 0.36655024 -0.0070412112
0.10591131 0.038902745 0.4260518 0.19954227 0.32811505 0.118840754 -0.0040090135 0.042917117
-0.12541372 -0.050980184 -0.08500299 -0.56039244 -0.7652437 -0.6519195 -0.25846508 -0.6591851
-0.45195276 -0.17425089 -0.017975736 -0.65223515 -0.3610361 -0.12917797 0.085244216 -0.14207591
-0.4809984 0.1328534 0.34049758 0.07458683 -0.016688067 0.13442995 0.13967958 0.25927213
0.028595055 0.290828 0.11482565 0.16877896 0.45540982 0.3338723 0.005531452 0.19815749
0.22144711 0.26438683 0.18754284 0.10386727 0.13697325 -0.2352153 -0.48235634 -0.46407005
-0.2774005 -0.11475299 -0.67116225 -0.68318975 -0.3719357 -0.040803168 0.3417279 0.06397022
-0.004896884 -0.5065329 -0.7409142 0.32636917 0.05327809 -0.09869454 -0.75469977 -0.5472157
0.3617445 0.07926979 -0.46297088 -1.1113615 -0.11965059 0.21049455 -0.24299496 -0.6049735
-0.5216577 0.07140774 0.071394384 -0.34131953 -0.62649184 -0.36125425 0.0022129512 0.43437457
0.2831042 -0.07853453 0.003994778 0.1910046 0.35087347 0.17294143 -0.15052636 -0.09798026
0.009237454 0.2641389 0.21353313 -0.08190201 -0.24655381 -0.07109074 -0.12393518 -0.18893659
-0.3024163 -0.52044773 -0.10675872 -0.19577798 0.11702194 -0.14672342 -0.13018984 -0.33405143
-0.049680907 0.08882949 -0.0021111113 -0.13931353 -0.25912178 0.23037136 0.3063342 0.1875009
-0.3433936 -0.6614923 0.173794 0.4256719 0.1308085 -0.1907151 -0.566667 0.13767616
0.2028182 0.09352896 -0.3450129 -0.18328099 0.1657801 0.1222855 -0.06430163 -0.1449168
-0.07417077 0.025588349 -0.2615836 -0.23729247 0.03774243 -0.22538957 -0.14661387 0.2120392
0.36254394 0.26854247 0.42449704 -0.17595722 0.31506932 0.18503766 0.071438424 0.17799154
0.12021612 0.14463298 -0.29743847 0.027585007 0.09278118 0.08278949 -0.41011822 -0.4593356
-0.4341145 -0.2852761 0.18571188 -0.17574699 0.061201043 0.0443083 0.36021075 0.15915723
00000000: 5497 a5bd 55f8 9ebe f1ee 9d3d f0af a03d
00000010: 51c1 373e e4f7 8bbe 3085 00bf 5498 15bd
00000020: 5883 6a3d 9ff5 cc3e 524a 48bf 6b5a 32bf
00000030: 3bbd 403d 11a7 b43e 2509 d33e e355 eebe
00000040: 6789 a6be ad26 aa3d ab71 9a3e 3863 c03e
00000050: 2486 cebe 3dea 81be b826 753d 2555 963e
00000060: d035 0cbd 9822 0cbe 3918 3b3e ff3f 9d3e
00000070: 9c33 2e3e 9d88 3b3e 771c e0be 9655 4abe
00000080: 2431 e33d db38 c73e dc4d 233e bbae 4bbf
00000090: 8639 5ebf 3b84 fbbe 95cc cbbe f8ce abbe
000000a0: 3bd2 d7be d97a 22bf e250 83bf e790 4fbf
000000b0: 55a7 2ebf 656c 923e b6f8 b03d 2693 d23c
000000c0: e458 113c ec41 23be f273 a03d 6245 683e
000000d0: 6504 283e 3824 b4bd 44ba 91be 3991 97bd
000000e0: e2ea 50be 463b e3be cb92 08bf 8e4c cfbd
000000f0: 4c9d f1be 8683 24bd 3be5 cc3d ec28 58be
00000100: 9299 233e a399 79be f606 663e ef70 983e
00000110: a8f3 003f 535e a23e 980d ebbc e907 543c
00000120: 1250 463c 0c6b 4a3e f637 cd3e 6b88 223e
00000130: 7a7e ba3e 6306 dc3e 8afe fe3d 84dc 9cbe
00000140: ce1b 27bd ed72 aa3e 348f 0f3e f6d4 a8be
00000150: 90e9 eebe 4125 dfbd 51e5 e1bd 7ed0 9abe
00000160: d47b 5abf 2ece aabe 7d73 b5bd 9f3f f1be
00000170: cb00 43bf b863 8ebe 79ac bb3e f6b9 e6bb
00000180: 07e8 d83d 7c58 1f3d 7623 da3e cf54 4c3e
00000190: b2fe a73e c862 f33d 0b5e 83bb dcc9 2f3d
000001a0: 746c 00be 99d0 50bd 0c16 aebd e175 0fbf
000001b0: 03e7 43bf 32e4 26bf 8955 84be 5bc0 28bf
000001c0: 5a66 e7be d36e 32be da41 93bc e2f8 26bf
000001d0: b9d9 b8be 3b47 04be 8594 ae3d 597c 11be
000001e0: 6c45 f6be b90a 083e b355 ae3e fbc0 983d
000001f0: 6ab5 88bc 01a8 093e 2a08 0f3e 51bf 843e
00000200: 2d40 ea3c 68e7 943e b629 eb3d 64d4 2c3e
00000210: 7a2b e93e 4ff1 aa3e 2f41 b53b cce9 4a3e
00000220: 08c3 623e b65d 873e 3b0b 403e 5db8 d43d
00000230: b742 0c3e 48dc 70be 69f7 f6be 979a edbe
00000240: 7007 8ebe 9e03 ebbd 4ad1 2bbf 86e5 2ebf
00000250: 5b6e bebe 3921 27bd f6f6 ae3e d202 833d
00000260: 0a76 a0bb 24ac 01bf 8eac 3dbf dc19 a73e
00000270: 203a 5a3d 5d20 cabd 0134 41bf 5416 0cbf
00000280: 9336 b93e 3358 a23d 850a edbe 1841 8ebf
00000290: 5e0b f5bd e28b 573e acd3 78be 8bdf 1abf
000002a0: 5c8b 05bf 393e 923d 3837 923d 6fc1 aebe
000002b0: c561 20bf 51f6 b8be 2907 113b 5866 de3e
000002c0: 09f3 903e b6d6 a0bd a0e6 823b b696 433e
000002d0: b0a5 b33e 8f17 313e 9523 1abe e0a9 c8bd
000002e0: b158 173c 373d 873e 6ea8 5a3e 3ebc a7bd
000002f0: 9a78 7cbe 0698 91bd bad1 fdbd 9878 41be
00000300: 4fd6 9abe 103c 05bf 51a4 dabd 067a 48be
00000310: 33a9 ef3d aa3e 16be 7c50 05be ca08 abbe
00000320: 357e 4bbd 3cec b53d 925a 0abb 35a8 0ebe
00000330: 9cab 84be 78e6 6b3e d6d7 9c3e 3c00 403e
00000340: 49d1 afbe 8f57 29bf 0ef7 313e abf1 d93e
00000350: aaf2 053e d24a 43be 1711 11bf fbfa 0c3e
00000360: 93af 4f3e 1d8c bf3d 88a5 b0be 03ae 3bbe
00000370: 42c2 293e d270 fa3d 93b0 83bd 1265 14be
00000380: d8e6 97bd a89e d13c 49ee 85be ccfc 72be
00000390: ce97 1a3d 86cc 66be f221 16be ce20 593e
000003a0: 5c9f b93e 667e 893e ad57 d93e 212e 34be
000003b0: c450 a13e 837a 3d3e 4f4e 923d 6a43 363e
000003c0: de33 f63d ab1a 143e db49 98be f4f9 e13c
000003d0: 0f04 be3d 898d a93d 04fb d1be 092e ebbe
000003e0: 4144 debe b50f 92be 412b 3e3e 05f7 33be
000003f0: f2ad 7a3d 9f7c 353d 8b6d b83e 1dfa 223e

conv1.bias f4 [16]
-0.1877236 0.117606685 -0.16627355 -0.062330928 -0.02241649 -0.22614177 0.0850549 0.2618932
0.10610425 -0.23711354 -0.11673562 0.07461417 0.15067002 -0.10407037 0.12803648 -0.2105021
00000000: 9e3a 40be c6db f03d 9d43 2abe b74e 7fbd
00000010: c9a2 b7bc b591 67be 4331 ae3d de16 863e
00000020: 2f4d d93d e4cd 72be 1613 efbd 50cf 983d
00000030: 3e49 1a3e d922 d5bd ff1b 033e dd8d 57be

conv2.weight f4 [32, 16, 5, 5]
0.045645833 -0.15629761 -0.009117665 0.059850365 -0.05594065 -0.0794613 0.11079878 -0.0095309755
-0.09612329 0.11372594 0.19763336 -0.008458662 -0.030925803 0.35657433 0.22187153 0.009785719
-0.09972152 0.26868436 0.15390545 0.05457571 0.1170527 -0.062616825 0.08459653 0.08430049
0.016369483 0.026729107 0.03819707 -0.12683536 -0.20537177 -0.078717194 0.14182204 -0.11096625
0.10179731 0.022329524 -0.037197344 0.094721414 0.33219457 0.35306194 -0.11065589 -0.02275924
0.26135567 -0.0078064506 -0.1462753 0.02398768 0.09400302 0.094765626 0.020337291 0.2744458
0.29964572 0.17544821 0.029584503 0.06677449 0.038931724 -0.16627757 -0.28616345 -0.053320184
0.14172105 -0.06311968 -0.093202695 -0.012180643 -0.19541661 -0.17815337 0.0050232545 0.15508534
0.14570025 -0.04239911 -0.11382617 -0.0014541536 0.060865737 0.015878467 -0.056114804 -0.18266363
-0.3769499 -0.06614577 0.1343511 -0.23093352 -0.05584853 -0.026395926 -0.008069781 -0.09572906
-0.012311632 0.10802391 -0.067478105 0.26600638 0.206355 0.052216038 0.2527016 0.79060906
0.3470489 -0.01999619 0.22102866 0.57510215 0.11412408 -0.03748908 0.09859657 -0.006826129
0.0785602 0.030714642 -0.17800027 -0.04750737 0.07321603 0.0070614386 0.03173491 0.12484974
0.1568746 0.11820386 0.163916 0.09635866 0.100585185 0.29236305 0.13116679 0.29202566
0.34547526 0.37898296 0.22431503 0.2438438 0.37317064 0.43610314 0.055091504 0.11136137
0.07624663 0.1619366 0.21757081 0.02935191 -0.021235984 -0.03179684 -0.0630828 -0.017090501
0.033114795 0.079475686 -0.00044327334 0.08276352 0.36449683 0.27049863 -0.16442588 0.31539726
0.34162903 0.20100982 -0.20875525 -0.22253622 0.09308037 -0.084382005 -0.05655286 0.042322554
0.07702605 -0.16043377 -0.07061506 -0.16246624 0.08882531 -0.057131253 -0.036994305 0.117585495
0.3586049 0.3932674 0.310605 0.102803394 0.1517097 0.24444851 0.31955105 0.18120201
0.14773679 0.04036963 0.45589966 0.1347395 0.0023193425 0.0356937 0.2768861 0.28349268
0.0603341 -0.106661625 0.27159137 0.17737098 0.14379984 -0.10735038 -0.0928033 -0.13227968
0.12470511 0.033533268 0.0015192018 -0.11594622 -0.17545465 -0.037503935 0.13321857 0.0794234
-0.058586895 -0.10604377 0.05210393 0.10938567 -0.23441921 -0.3216884 0.1421059 -0.08014011
-0.10569167 -0.1619297 0.03018505 -0.13890927 0.0034351114 -0.02592876 -0.080521815 -0.08212518
0.0061235595 0.1200353 0.08706142 0.13535449 0.058732614 0.00023925515 0.07746947 0.052357372
0.086582676 -0.037999418 -0.1741596 0.20302391 0.1570814 -0.4754354 -0.24098583 0.029509906
-0.037587762 -0.34769645 -0.61380076 -0.009689346 0.107702486 -0.1181164 -0.096481256 -0.31884432
-0.41678607 0.06869281 0.095733844 -0.12997858 -0.0036852313 0.050723463 0.08834158 0.17921506
0.08461107 0.12048398 -0.3190214 0.27092057 0.029130915 -0.044804327 -0.23160808 0.12820247
-0.14085312 -0.07538424 0.08269664 0.28096563 0.052536592 0.022975793 -0.11727873 -0.027236937
0.05710504 0.04430856 0.056411605 0.030229632 -0.0011717777 -0.08913116 -0.06464891 -0.1331926
00000000: 20f7 3a3d 7b0c 20be 4262 15bc a825 753d
00000010: 0622 65bd 9bbc a2bd 79ea e23d cf27 1cbc
00000020: 4adc c4bd 25e9 e83d 6660 4a3e 3396 0abc
00000030: 1c58 fdbc e990 b63e 4a32 633e 4854 203c
00000040: cc3a ccbd ff90 893e 6499 1d3e c88a 5f3d
00000050: 53b9 ef3d 403d 80bd f240 ad3d bca5 ac3d
00000060: 4b19 863c 00f7 da3c 8874 1c3d 21e1 01be
00000070: fa4c 52be 7b36 a1bd cc39 113e 4642 e3bd
00000080: 1c7b d03d 68ec b63c 3e5c 18bd 4dfd c13d
00000090: 6815 aa3e 89c4 b43e 8e9f e2bd 9671 babc
000000a0: 69d0 853e 41cd ffbb 31c9 15be d081 c43c
000000b0: a884 c03d 7b14 c23d 649a a63c 2984 8c3e
000000c0: 2a6b 993e b2a8 333e 335b f23c 10c1 883d
000000d0: df76 1f3d ab44 2abe 0484 92be 4466 5abd
000000e0: 531f 113e e444 81bd 0ee1 bebd 5291 47bc
000000f0: 4b1b 48be d66d 36be 1d9a a43b b1ce 1e3e
00000100: 7232 153e b0aa 2dbd b21d e9bd 4c99 beba
00000110: 5a4e 793d 8f13 823c a3d8 65bd 2d0c 3bbe
00000120: 94ff c0be 6f77 87bd 5693 093e d679 6cbe
00000130: 6ec1 64bd 453c d8bc 1d37 04bc 990d c4bd
00000140: bab6 49bc a43b dd3d f631 8abd fd31 883e
00000150: ba4e 533e 7ce0 553d 1b62 813e 5b65 4a3f
00000160: 65b0 b13e 0dcf a3bc 5655 623e e539 133f
00000170: e3b9 e93d 268e 19bd 00ed c93d b8ad dfbb
00000180: 2ce4 a03d 469d fb3c b445 36be 1797 42bd
00000190: 49f2 953d a463 e73b 77fc 013d 38b1 ff3d
000001a0: bca3 203e de14 f23d 99d9 273e b057 c53d
000001b0: 9bff cd3d 9cb0 953e 9650 063e 6384 953e
000001c0: 22e2 b03e 0e0a c23e d7b2 653e 30b2 793e
000001d0: 3910 bf3e e948 df3e a1a7 613d 6e11 e43d
000001e0: 3127 9c3d b5d2 253e e2ca 5e3e 6b73 f03c
000001f0: 16f7 adbc 673d 02bd 8e31 81bd 6101 8cbc
00000200: 61a3 073d 26c4 a23d 2467 e8b9 ec7f a93d
00000210: 549f ba3e cc7e 8a3e 425f 28be c07b a13e
00000220: 00ea ae3e 85d5 4d3e f0c3 55be 89e0 63be
00000230: eca0 be3d 79d0 acbd f9a3 67bd 6a5a 2d3d
00000240: d5bf 9d3d c048 24be a19e 90bd 8d5d 26be
00000250: 0bea b53d 7602 6abd 5787 17bd aad0 f03d
00000260: 109b b73e 585a c93e 9e07 9f3e 968a d23d
00000270: ca59 1b3e b650 7a3e 329c a33e 058d 393e
00000280: 5048 173e a05a 253d ae6b e93e 27f9 093e
00000290: 1c00 183b 8f33 123d 04c4 8d3e f425 913e
000002a0: e420 773d 6971 dabd 060e 8b3e bda0 353e
000002b0: 4440 133e 84da dbbd a80f bebd 5374 07be
000002c0: 6565 ff3d 2e5a 093d f41f c73a 3675 edbd
000002d0: 62aa 33be ba9d 19bd 736a 083e bca8 a23d
000002e0: d0f8 6fbd 7a2d d9bd ee6a 553d 9805 e03d
000002f0: 970b 70be 58b4 a4be 3684 113e 7f20 a4bd
00000300: e074 d8bd e6d0 25be a346 f73c 3b3e 0ebe
00000310: 9b1f 613b 8d68 d4bc 9fe8 a4bd 3f31 a8bd
00000320: 24a8 c83b 11d5 f53d 424d b23d 5e9a 0a3e
00000330: 9c91 703d 91e0 7a39 50a8 9e3d af74 563d
00000340: 4252 b13d 47a5 1bbd e556 32be 80e5 4f3e
00000350: f2d9 203e 456c f3be fdc4 76be c2be f13c
00000360: a0f5 19bd 4505 b2be 0c22 1dbf 10c0 1ebc
00000370: 1f93 dc3d 03e7 f1bd f797 c5bd 903f a3be
00000380: fc64 d5be d1ae 8c3d 1b10 c43d 1b19 05be
00000390: ec83 71bb 68c3 4f3d 6eec b43d 2784 373e
000003a0: 9248 ad3d 4ec0 f63d c656 a3be 1ab6 8a3e
000003b0: f5a3 ee3c be84 37bd ab2a 6dbe 8247 033e
000003c0: cd3b 10be 0d63 9abd db5c a93d bada 8f3e
000003d0: 9c30 573d bb37 bc3c d52f f0bd ff1f dfbc
000003e0: f9e6 693d e57c 353d db0f 673d 22a4 f73c
000003f0: 5696 99ba 668a b6bd a666 84bd a463 08be

conv2.bias f4 [32]
-0.105716385 -0.119269274 -0.02558632 -0.18964253 -0.11163614 -0.17996746 -0.14864448 -0.2515359
-0.11503328 -0.24697709 -0.24560548 0.012933115 0.04769337 -0.12264167 -0.09872278 -0.07562419
-0.04980012 -0.17266537 -0.05378228 -0.15835911 -0.038114894 -0.05070075 -0.06922045 -0.15997106
-0.2282888 -0.048160207 -0.23650311 -0.08994186 -0.08508498 -0.025025446 -0.059900116 -0.15528008
00000000: d581 d8bd 7343 f4bd 679a d1bc a731 42be
00000010: 7da1 e4bd 6449 38be 4236 18be 50c9 80be
00000020: 9196 ebbd 90e7 7cbe 0180 7bbe 6ae5 533c
00000030: 205a 433d 8e2b fbbd 2b2f cabd dbe0 9abd
00000040: 36fb 4bbd 31cf 30be cf4a 5cbd e428 22be
00000050: 5d1e 1cbd 97ab 4fbd 74c3 8dbd 74cf 23be
00000060: 8ac4 69be a343 45bd df2d 72be 7033 b8bd
00000070: 0941 aebd 2a02 cdbc d359 75bd be01 1fbe

fc.weight f4 [10, 512]
0.08124753 0.15046053 -0.055392057 -0.44667163 0.25101748 -0.10981742 -0.1748155 -0.22249398
0.03893405 0.22333406 0.1370084 0.03330611 -0.4132886 0.014971622 0.15193188 0.46945
-0.11678906 -0.048369374 -0.24272557 -0.30096012 0.11536538 0.021787278 -0.2424476 0.09467552
-0.019994196 -0.1383572 0.24815023 0.21366929 -0.033221923 -0.11884191 -0.07011751 0.22673659
-0.00084923726 0.11381509 0.09140311 -0.21273774 0.1595654 0.112619795 -0.07399621 -0.42778477
0.045709334 0.12512322 -0.19846922 0.07094797 -0.17659782 -0.3412112 -0.09217 0.035445917
-0.112994336 0.16124572 -0.11131522 0.13759023 -0.1786268 -0.07987149 -0.49595264 0.028182475
-0.2236391 -0.099250555 -0.3558764 0.27577284 -0.12643018 0.3964307 0.09550862 0.030664219
-0.035090007 -0.21751554 0.015002286 -0.48985222 0.11457812 -0.2326428 0.0011259936 -0.075715646
-0.40965268 -0.49076697 0.07510205 0.031299133 -0.0037340287 0.22773533 -0.096216805 -0.054696795
-0.09156827 0.0448423 0.03411201 0.18559961 0.2495845 0.17168893 0.019570125 0.083069846
-0.057806917 -0.09017506 -0.33606783 -0.093608834 -0.07164879 -0.43326697 -0.29176798 -0.23074381
-0.036268484 -0.10891552 0.014803296 -0.4932897 0.33979282 0.38803282 -0.109934814 -0.22668268
0.18644273 0.16708887 -0.09459296 0.29051152 0.013209239 -0.16874844 0.050674845 0.11046395
-0.011355747 -0.05600924 0.26055 0.12593491 -0.020575479 -0.054650076 -0.11547804 -0.055757556
0.02244854 -0.13243575 -0.12313198 0.09216225 0.086604446 0.3683164 0.15095694 0.3058874
-0.010003758 -0.11312789 0.15383455 0.10413851 0.04421271 -0.021504972 0.12518077 0.1000472
0.072830744 -0.08737183 0.0601195 -0.020457298 0.0020222035 -0.16256529 -0.3816246 0.10478401
0.041538324 0.022051513 -0.18752912 0.04148993 -0.24005997 -0.21958576 0.086097434 -0.019199258
-0.07008351 -0.11503385 0.08032616 -0.42106822 0.14023167 0.26533568 0.1262073 -0.03505082
-0.06482795 -0.07641731 0.055324093 0.41192353 0.018186739 -0.03237035 0.099116705 0.31647858
0.29701665 0.123979904 -0.21996762 0.06305885 0.21070276 0.2006548 -0.35516226 -0.5092855
0.065528095 -0.026717193 0.1344187 -0.34955662 -0.19267996 -0.18447128 -0.05678306 -0.43871543
-0.24272066 -0.16390334 0.038702834 -0.37443447 -0.12294021 -0.3032106 0.05651293 0.13614082
0.053363953 0.17135178 0.0526238 -0.2968628 -0.08180065 0.48621538 -0.02783949 -0.30513832
-0.2765073 0.034459885 -0.08655184 -0.3168111 -0.19892907 -0.59486336 0.4961311 -0.059582256
-0.0062498865 0.016182369 0.03511144 0.015483369 -0.23399885 -0.22243011 -0.32171872 -0.17710298
-0.23581669 -0.39581725 -0.27783915 -0.068580255 -0.19455007 -0.025661185 0.38189194 0.08828074
0.09041445 -0.05151234 0.24824609 -0.021415345 0.13745952 -0.32363036 -0.021026324 -0.3385708
-0.29088393 -0.4380883 0.08766374 -0.29699948 -0.1639044 -0.15218772 0.020553764 0.2516679
0.12091332 0.28745583 -0.007301341 -0.36529624 0.15620814 0.3071255 -0.052295253 0.0457097
0.18351904 -0.030831655 0.082553916 0.1428642 0.05838493 -0.21474011 -0.1922348 0.008280649
00000000: 1b65 a63d 5312 1a3e c8e2 62bd 25b2 e4be
00000010: 5d85 803e f5e7 e0bd d602 33be 76d5 63be
00000020: 4f79 1f3d afb1 643e ee4b 0c3e fd6b 083d
00000030: 909a d3be 894b 753c 0894 1b3e c05b f03e
00000040: 1a2f efbd f71e 46bd 0d8d 78be 7217 9abe
00000050: af44 ec3d 3c7b b23c 2f44 78be 3de5 c13d
00000060: deca a3bc 83ad 0dbe 181b 7e3e 1fcc 5a3e
00000070: b613 08bd 6363 f3bd c599 8fbd a32d 683e
00000080: 599f 5eba e317 e93d 8e31 bb3d ecd7 59be
00000090: 1d65 233e 35a5 e63d 538b 97bd 9b06 dbbe
000000a0: b639 3b3d 4d20 003e 843b 4bbe 2b4d 913d
000000b0: 0fd6 34be 3cb3 aebe a0c3 bcbd bd2f 113d
000000c0: 9369 e7bd 991d 253e 3cf9 e3bd 74e4 0c3e
000000d0: f2e9 36be aa93 a3bd 81ed fdbe efde e63c
000000e0: a601 65be e043 cbbd 6e35 b6be 1932 8d3e
000000f0: ea76 01be f7f8 ca3e 069a c33d 8733 fb3c
00000100: 8aba 0fbd 65bc 5ebe 26cc 753c e9cd fabe
00000110: efa7 ea3d ea39 6ebe 1396 933a ce10 9bbd
00000120: ffbd d1be cf45 fbbe 1bcf 993d 8533 003d
00000130: 9bb6 74bb 7333 693e 510d c5bd bf09 60bd
00000140: 2588 bbbd 8fac 373d 09b9 0b3d d30d 3e3e
00000150: 1493 7f3e 39cf 2f3e 8751 a03c 8620 aa3d
00000160: f2c6 6cbd b4ad b8bd 1511 acbe fdb5 bfbd
00000170: 9abc 92bd 2bd5 ddbe 9d62 95be 1b48 6cbe
00000180: 438e 14bd 1a0f dfbd 8689 723c 7890 fcbe
00000190: 53f9 ad3e 3dac c63e 8125 e1bd 811f 68be
000001a0: d8ea 3e3e 5819 2b3e f4b9 c1bd edbd 943e
000001b0: 906b 583c 64cc 2cbe 6d90 4f3d ec3a e23d
000001c0: 740d 3abc f269 65bd cf66 853e 15f5 003e
000001d0: e88d a8bc c2d8 5fbd c07f ecbd 0962 64bd
000001e0: 00e6 b73c 3d9d 07be 9f2c fcbd 90bf bc3d
000001f0: ac5d b13d f893 bc3e 7594 1a3e 469d 9c3e
00000200: cde6 23bc 98af e7bd ce86 1d3e 9246 d53d
00000210: 6318 353d 322b b0bc 632f 003e 8ce5 cc3d
00000220: 4928 953d 01f0 b2bd dd3f 763d 1096 a7bc
00000230: f286 043b 8477 26be 4d64 c3be 0099 d63d
00000240: 1724 2a3d 60a5 b43c a207 40be 58f1 293d
00000250: 48d2 75be 17db 60be da53 b03d c347 9dbc
00000260: f187 8fbd de96 ebbd 0b82 a43d 4196 d7be
00000270: e498 0f3e 14da 873e 7d3c 013e 7391 0fbd
00000280: 84c4 84bd ae80 9cbd 849b 623d a4e7 d23e
00000290: 5bfc 943c c696 04bd b3fd ca3d 7b09 a23e
000002a0: 9112 983e 2de9 fd3d 313f 61be 0025 813d
000002b0: 77c2 573e 7478 4d3e d4d7 b5be 8960 02bf
000002c0: 9833 863d 04de dabc 0ea5 093e 16f9 b2be
000002d0: e54d 45be 0ae6 3cbe 5b95 68bd 4f9f e0be
000002e0: c48b 78be 47d6 27be dd86 1e3d e0b5 bfbe
000002f0: 14c8 fbbd 6b3e 9bbe 1a7a 673d 8068 0b3e
00000300: 2994 5a3d d776 2f3e 0e8c 573d 67fe 97be
00000310: 1987 a7bd 39f1 f83e a40f e4bc 173b 9cbe
00000320: 5d92 8dbe cf25 0d3d 1742 b1bd 1135 a2be
00000330: 10b4 4bbe f748 18bf e504 fe3e 860c 74bd
00000340: d9cb ccbb e390 843c 03d1 0f3d f5ad 7d3c
00000350: 659d 6fbe b8c4 63be 51b8 a4be 7c5a 35be
00000360: ee79 71be 8fa8 cabe ef40 8ebe ce73 8cbd
00000370: 2238 47be 6837 d2bc 5787 c33e 88cc b43d
00000380: 362b b93d 9afe 52bd 3934 7e3e 3c6f afbc
00000390: 30c2 0c3e e1b2 a5be 663f acbc 2759 adbe
000003a0: bdee 94be 1c4d e0be 0c89 b33d 5110 98be
000003b0: 8ed6 27be 19d7 1bbe 5e60 a83c 9dda 803e
000003c0: 67a1 f73d 692d 933e 1640 efbb 1c08 bbbe
000003d0: 07f5 1f3e 8e3f 9d3e 8c33 56bd 183a 3b3d
000003e0: 6aec 3b3e ab92 fcbc 0712 a93d fe4a 123e
000003f0: 0925 6f3d d5e4 5bbe 33d9 44be 8fab 073c

fc.bias f4 [10]
-0.05158613 0.12368143 0.16887295 -0.11809651 0.028012892 0.1955674 -0.2067521 0.14364837
-0.09217464 -0.16393806
00000000: fa4b 53bd b14c fd3d 08ed 2c3e 95dc f1bd
00000010: 4b7b e53c d242 483e d3b6 53be 8f18 133e
00000020: 0fc6 bcbd 61df 27be
